checkpoint_critic.pth (torch_old, 542634 bytes, 5 tensors)

fcs1.weight f4 [400, 33]
0	0x3e654664	0.22390133
1	0x3e65d840	0.22445774
2	0x3e1b4932	0.1516464
3	0xbe8269e6	-0.2547142
4	0x3e503c6d	0.2033555
5	0xbd9884a4	-0.07447174
6	0xbf205dc3	-0.6264307
7	0xbda4a47a	-0.08039184
8	0xbe646b7a	-0.22306624
9	0xbdc36be9	-0.095420666
10	0x3d024939	0.03180811
11	0x3d92e0e9	0.071718045
12	0x3e91e1a8	0.28492475
13	0x3e6eacca	0.23308101
14	0x3f034e45	0.51291305
15	0xbd2b653b	-0.041844588
16	0xbd163cd5	-0.036679108
17	0xbca449b1	-0.02005467
18	0xbee036ad	-0.43791714
19	0x3d3f3a04	0.046686187
20	0x3ed42fa5	0.414426
21	0x3c2101aa	0.009827057
22	0x3e7d8264	0.24756771
23	0x3e716896	0.23575053
24	0x3d904eb2	0.0704626
25	0x3e023b44	0.1271792
26	0xbd923abd	-0.0714011
27	0x3f45849c	0.7715547
28	0x3e8cfbf9	0.2753599
29	0xbc748d78	-0.014926307
30	0xbf319420	-0.69366646
31	0xbd2f66b3	-0.04282255
32	0xbe674e7f	-0.22588538
33	0x3e9daf55	0.3079783
34	0x3f184167	0.59474796
35	0x3e4fbe2e	0.20287392
36	0xbe07ed2d	-0.13274069
37	0x3df29032	0.11843909
38	0x3e99bbba	0.30026037
39	0x3e1f4b48	0.15556061
40	0x3eb1d711	0.34734395
41	0x3e7ae741	0.24502279
42	0x3e144a1a	0.14481393
43	0x3e5e8e07	0.21733867
44	0xbc606ee8	-0.013698317
45	0xbe2f859d	-0.17140813
46	0xbe298d1e	-0.16557738
47	0xbdbda3ec	-0.09259781
48	0xbde49597	-0.111613445
49	0xbe8b4921	-0.2720423
50	0xbe036b9b	-0.12834017
51	0x3e75c6f8	0.24001682
52	0x3dfe85da	0.12427874
53	0xbe2c9451	-0.16853453
54	0xbebd1754	-0.3693186
55	0x3dcbdc2e	0.09954105
56	0xbdf1b417	-0.118019275
57	0xbe6f982b	-0.23397891
58	0x3ea3b5ee	0.3197474
59	0xbe7864e6	-0.2425724
60	0x3f22e4ad	0.6363018
61	0x3c90610a	0.017624397
62	0x3cc9272a	0.024554808
63	0xbf331c83	-0.6996538
64	0x3d28bc09	0.04119495
65	0x3d862b9a	0.06551285
66	0x3e542078	0.20715511
67	0xbefd53dd	-0.49478045
68	0xbca735d3	-0.020411408
69	0x3e13897e	0.14407918
70	0xbd14e0ad	-0.03634708
71	0x3e849f60	0.25902843
72	0x3e342ce3	0.17595248
73	0xbe98be32	-0.29832608
74	0xbe68799a	-0.22702637
75	0x3e1ddf79	0.1541728
76	0xbd978c60	-0.07399821
77	0xbb3f4cd2	-0.0029190076
78	0xbdb7bb05	-0.08971218
79	0x3d6da484	0.058018222
80	0x3e4b2f19	0.19842185
81	0xbb929d2e	-0.0044743037
82	0x3ced6e95	0.028983394
83	0xbd7a5a45	-0.061121244
84	0x3d5dc9b6	0.054147445
85	0xbcd20ce5	-0.025640914
86	0x3d8afdea	0.067867115
87	0xbcf4c9da	-0.029881407
88	0xbbcab8be	-0.0061865738
89	0xbd6f4b94	-0.058421686
90	0x3d18cf05	0.037306804
91	0xbe0e44ed	-0.1389348
92	0xbeb6f5de	-0.35734457
93	0xbed59128	-0.41712308
94	0xbe5e752b	-0.21724384
95	0x3d1cebbd	0.038310755
96	0x3eb17ece	0.34667057
97	0x3b16d1b0	0.0023013167
98	0xbe2e4174	-0.17017156
99	0x3e8e5645	0.27800193
100	0x3efde199	0.4958618
101	0xbd5d52b2	-0.054033943
102	0xbe813731	-0.2523742
103	0xbe9668d3	-0.2937685
104	0x3eb51601	0.3536835
105	0x3f149c17	0.58050674
106	0x3e3cc82c	0.18435735
107	0x3e0320d5	0.12805493
108	0x3e066009	0.13122572
109	0x3e9544cb	0.29154047
110	0x3d8bd0a8	0.068269074
111	0x3e2ad7f1	0.16683938
112	0xbf1f0b32	-0.6212646
113	0xbe27bbe5	-0.1638027
114	0x3e1fac70	0.15593123
115	0x3dd7ca2d	0.10536609
116	0x3e8a52d0	0.27016306
117	0x3d527686	0.051382564
118	0xbcb66f3d	-0.02226984
119	0x3e12e0ea	0.1434361
120	0x3d55bf22	0.05218423
121	0xbe4ad797	-0.19808803
122	0xbe1c9b35	-0.15293582
123	0x3d819c16	0.06328599
124	0x3d68a04b	0.056793492
125	0x3d9f604c	0.07782039
126	0x3f7f0bfa	0.9962765
127	0xbe8781dc	-0.26466262
128	0x3c9da22e	0.019242372
129	0xbf801a15	-1.000796
130	0x3cbb7a52	0.022885475
131	0xbf99b154	-1.2007241
132	0x3ea0e502	0.3142472
133	0x3e998143	0.2998143
134	0x3e9de429	0.30838135
135	0x3e028350	0.12745404
136	0xbae42fa0	-0.0017409213
137	0xbd7e7db7	-0.06213161
138	0x3e9bed5e	0.30454534
139	0x3dfd7334	0.12375489
140	0x3e2c51f3	0.16828136
141	0xbd2eb1b3	-0.042649936
142	0x3e2671c7	0.1625434
143	0xbd81433b	-0.06311651
144	0xbc23b3d5	-0.009991606
145	0xbea1899c	-0.315503
146	0x3d35a5ee	0.044347696
147	0xbdc55070	-0.09634483
148	0x3e083d94	0.1330474
149	0x3e43906f	0.19098066
150	0x3f3eaf6b	0.74486417
151	0xbc054e22	-0.008136304
152	0xbdc0b075	-0.094086565
153	0xbe745ce5	-0.23863561
154	0x3e4f6b40	0.20255756
155	0x3ef2b383	0.47402582
156	0xbd30ea0e	-0.043191962
157	0x3e94fa25	0.29097095
158	0x3e9d2289	0.3069041
159	0x3f382bf5	0.71942073
160	0xbb8b8a3b	-0.0042584217
161	0x3c5e1504	0.013554815
162	0xbf29b201	-0.6628724
163	0xbd3c421f	-0.045961495
164	0x3d1a4691	0.037664954
165	0xbe9b5740	-0.30340004
166	0x3e8ecf55	0.27892557
167	0x3e2315d6	0.15926298
168	0xbf1d56ee	-0.6146077
169	0xbe2cf858	-0.1689161
170	0xbf35fc23	-0.71087855
171	0x3da9e264	0.08295134
172	0xbc49004a	-0.012268135
173	0xbe27915f	-0.16364048
174	0xbe287547	-0.16450988
175	0xbe16fd4c	-0.14745063
176	0x3d3761f1	0.04477114
177	0xbdf19840	-0.117966175
178	0xbea453db	-0.32095227
179	0x3f1800d2	0.5937625
180	0x3e1a9e77	0.15099512
181	0x3e5dd090	0.21661592
182	0xbf57cb66	-0.84294736
183	0x3d989b8a	0.07451542
184	0xbf79183c	-0.97302604
185	0xbe8597be	-0.26092333
186	0x3e901e0f	0.28147933
187	0x3dedb080	0.1160593
188	0x3e949ace	0.29024357
189	0x3e3d76fd	0.18502422
190	0x3dc81687	0.09769922
191	0x3e9b19cf	0.30293128
192	0x3f4ee730	0.80821514
193	0xbe5435f6	-0.2072371
194	0xbd2b4a02	-0.041818626
195	0xbf3d9ae4	-0.7406447
196	0xbc869f06	-0.01643325
197	0xbf290859	-0.6602836
198	0xbd10322d	-0.0352041
199	0x3e09f37c	0.13471788
200	0xbdd49e31	-0.10381735
201	0xbdea04c0	-0.11426687
202	0xbe330039	-0.17480554
203	0xbeeaf15c	-0.45887268
204	0xbdcb7dde	-0.09936117
205	0x3dc53f67	0.09631234
206	0x3d266f88	0.04063371
207	0xbcf17e3c	-0.029479139
208	0xbc383f27	-0.011245525
209	0xbcb86ed9	-0.022513794
210	0x3d0f4907	0.034981754
211	0x3c1a79eb	0.009428482
212	0xbcd878b4	-0.026424743
213	0x3dc7c1cf	0.09753763
214	0x3d387a1b	0.045038324
215	0x3cbd88cb	0.023136517
216	0xbd2b627a	-0.04184196
217	0x3c97da50	0.018536717
218	0x3bab4c85	0.0052276277
219	0x3cf94c1f	0.030431805
220	0x3ca89f25	0.020583699
221	0xbca3087d	-0.019901508
222	0x3cd7c46b	0.026338777
223	0x3ca7190d	0.020397687
224	0xbdd8c585	-0.10584549
225	0x3eb1b9f6	0.3471219
226	0xbd133e54	-0.035948113
227	0xbd32c1a3	-0.043641698
228	0xbec44b4e	-0.38338703
229	0xbd2b7872	-0.041862912
230	0xc05d4919	-3.4575865
231	0x3e283c73	0.1642931
232	0x3f5e35ba	0.8680073
233	0x3d8eb815	0.069687046
234	0xbec42287	-0.38307592
235	0xbea8e8d1	-0.32990125
236	0x3f04e905	0.5191806
237	0x3e016b52	0.12638596
238	0xbd248461	-0.04016531
239	0x3d4d85a6	0.050176285
240	0x3d76c01e	0.06024181
241	0x3daae692	0.08344759
242	0x3e5f7a27	0.21823941
243	0xbe27d183	-0.16388516
244	0xbe715afa	-0.23569861
245	0xbebfa231	-0.3742843
246	0xbe4c1aa0	-0.19932032
247	0xbe8f1213	-0.27943477
248	0xbdc67b17	-0.09691446
249	0xbe20f309	-0.1571771
250	0xbe07b397	-0.13252102
251	0xbcb1fe82	-0.021727804
252	0x3daa5764	0.0831745
253	0x3e3ccc8b	0.18437402
254	0xbd052849	-0.032509122
255	0xbcae3472	-0.021265242

fcs1.bias f4 [400]
0	0xbf2c7fbc	-0.6738241
1	0xbf48d825	-0.7845481
2	0x3e80677e	0.25078958
3	0xbf8188be	-1.0119855
4	0xbf39bf15	-0.72557193
5	0xbf5b47c6	-0.8565639
6	0xbeacf850	-0.33783197
7	0xbf27ed44	-0.65596414
8	0xbec5b2ae	-0.38612884
9	0xbf32a4ef	-0.6978292
10	0xbf4c16f0	-0.797225
11	0xbf0a76d2	-0.54087555
12	0xbf0dad7e	-0.55342853
13	0xbdf4f7b3	-0.119613074
14	0xbf8c228f	-1.0948046
15	0xbf223175	-0.63356715
16	0xbf4a46be	-0.79014194
17	0xbf663f3a	-0.89940226
18	0xbf0dc377	-0.5537638
19	0xbf35d86a	-0.71033347
20	0xbefc94e0	-0.49332333
21	0xbece862c	-0.4033674
22	0xbf62a34c	-0.8853042
23	0xbed0c4b1	-0.40775064
24	0xbf898f74	-1.0746903
25	0xbec1de72	-0.37865025
26	0xbed12d4e	-0.40854877
27	0xbebbb259	-0.36659506
28	0xbf8868d4	-1.0656991
29	0xbf8fa01c	-1.1220737
30	0xbf183f8e	-0.59471977
31	0xbf502de2	-0.8132001
32	0xbeca3302	-0.3949204
33	0xbf751841	-0.95740134
34	0xbfb41ae9	-1.4070712
35	0xbf182979	-0.5943828
36	0x3e9d17b6	0.30682153
37	0xbf8061e5	-1.0029875
38	0xbf1c829f	-0.6113681
39	0xbebc11f1	-0.36732438
40	0xbf4b71a9	-0.79470307
41	0xbf1ac937	-0.6046328
42	0xbf61f599	-0.8826538
43	0xbf2d7eb0	-0.67771435
44	0xbf3ab162	-0.72926915
45	0xbf38501a	-0.71997225
46	0xbf245a77	-0.6420054
47	0xbf41840f	-0.7559213
48	0xbf5dbc8c	-0.86615825
49	0xbf2db23b	-0.67850083
50	0xbf725c52	-0.9467212
51	0xbf0d88f7	-0.55287117
52	0xbf71d255	-0.94461566
53	0xbf66a460	-0.90094566
54	0xbf26a3d1	-0.65093714
55	0xbe90494d	-0.28180924
56	0xbf49647a	-0.7866894
57	0xbf030b0f	-0.5118875
58	0xbf4403fe	-0.7656859
59	0xbf4c2dfb	-0.7975766
60	0xbedc863a	-0.43071157
61	0xbf17b211	-0.5925608
62	0xbf36977e	-0.7132491
63	0xbf69d212	-0.91336167
64	0xbe9c019b	-0.30469975
65	0x3c570377	0.013123385
66	0xbf7e3294	-0.99295926
67	0xbf492002	-0.78564465
68	0xbf86ae17	-1.0521878
69	0xbf945d20	-1.159092
70	0xbf1ab816	-0.6043714
71	0xbf3e95f4	-0.7444756
72	0xbf1df155	-0.6169637
73	0xbf7e5119	-0.99342495
74	0xbf300eec	-0.6877277
75	0x3dec36d8	0.11533898
76	0xbe8d2ca8	-0.27573133
77	0xbf78a491	-0.9712611
78	0xbf93e242	-1.1553423
79	0xbf8404d9	-1.0313979
80	0xbf5628d4	-0.8365605
81	0xbf28ce93	-0.6594021
82	0xbf695997	-0.9115233
83	0xbdb4f46c	-0.08835682
84	0xbee469e3	-0.44612035
85	0xbef99b3c	-0.48751247
86	0xbf58bbb5	-0.8466142
87	0xbf038608	-0.5137639
88	0xbf5224f2	-0.82087624
89	0xbf3ffc73	-0.7499458
90	0xbf8ad3b1	-1.0845853
91	0xbf7804a7	-0.968821
92	0xbf670daf	-0.90255255
93	0xbf2e95e3	-0.6819746
94	0xbf0da33f	-0.5532722
95	0xbf887f5d	-1.0663868
96	0xbf00a957	-0.5025839
97	0xbee92fcc	-0.4554428
98	0xbeb94332	-0.36184078
99	0xbf132c12	-0.5748912
100	0xbf3df878	-0.7420726
101	0xbf1703e1	-0.58990294
102	0xbf4f7ebb	-0.8105275
103	0xbf504065	-0.8134826
104	0xbf257fa4	-0.6464789
105	0xbf073de9	-0.5282884
106	0xbf1120ef	-0.5669088
107	0xbf2fa5a8	-0.68612146
108	0xbf658538	-0.896564
109	0xbf25dc1d	-0.6478899
110	0xbe89b2ea	-0.26894313
111	0xbf871b03	-1.0555118
112	0xbf673d6e	-0.9032811
113	0xbf3dabdf	-0.7409038
114	0xbf698788	-0.9122243
115	0xbf52dd63	-0.8236906
116	0xbf4298e4	-0.7601454
117	0xbf697632	-0.91195977
118	0xbed5fa0e	-0.4179234
119	0xbf8787ef	-1.0588359
120	0xbf15596e	-0.58339584
121	0xbf3798fe	-0.7171782
122	0xbebfadeb	-0.37437376
123	0xbf8d92f6	-1.1060474
124	0xbe6f4256	-0.23365149
125	0xbf41b3c4	-0.75664926
126	0xbf6ae7ec	-0.91760135
127	0x3c51ace1	0.012797565
128	0xbf7cb318	-0.98710775
129	0xbf3b5c37	-0.73187584
130	0xbf3ba5e1	-0.73299986
131	0xbf6dad4c	-0.92842555
132	0xbe9ac824	-0.3023082
133	0xbf78bfec	-0.9716785
134	0xbf3dd71c	-0.74156356
135	0xbf0867f0	-0.53283596
136	0xbf678488	-0.904366
137	0xbf88d2ce	-1.0689332
138	0xbea970d5	-0.33093897
139	0xbf875990	-1.0574207
140	0xbf5c46bb	-0.86045426
141	0xbe8f53dd	-0.2799367
142	0xbf12f39f	-0.57402986
143	0xbf0fb5bf	-0.561367
144	0xbf5baea4	-0.85813355
145	0xbebcd7a0	-0.3688326
146	0xbf468108	-0.77540636
147	0xbe3cb14d	-0.1842701
148	0xbf88068f	-1.0627002
149	0xbf45dd5f	-0.7729091
150	0xbf1f4541	-0.6221505
151	0xbf6f4803	-0.93469256
152	0xbf4be0a8	-0.79639673
153	0xbeb5f61a	-0.35539323
154	0xbf0a01ba	-0.53908885
155	0xbf5e450b	-0.868241
156	0xbf9b6eec	-1.2143226
157	0xbf2902b3	-0.66019744
158	0xbf21928f	-0.63114256
159	0x3e792536	0.24330601
160	0xbecfcbcf	-0.4058518
161	0xbf5b0dbb	-0.85567826
162	0xbf279d13	-0.6547405
163	0xbf82693b	-1.0188364
164	0x3dec0734	0.115248114
165	0xbfa04b04	-1.2522893
166	0xbf278333	-0.6543457
167	0xbf758aa4	-0.95914674
168	0xbe6bada3	-0.23015456
169	0xbf53b5e4	-0.8269942
170	0xbf93cdf0	-1.1547222
171	0xbf66330c	-0.8992164
172	0xbf291589	-0.66048485
173	0xbeb209d4	-0.34773123
174	0xbf8195ba	-1.0123818
175	0xbf4a3ef3	-0.790023
176	0xbf2f02c5	-0.683636
177	0xbf87ca40	-1.0608597
178	0xbefac9d3	-0.48982105
179	0xbf313fdf	-0.69238085
180	0xbf77f637	-0.9686007
181	0xbf607f62	-0.8769437
182	0xbf3a947b	-0.72882813
183	0x3d2a7b6e	0.041621618
184	0xbf417a43	-0.7557718
185	0xbf699f0d	-0.9125832
186	0xbf635f3d	-0.888172
187	0xbf2ded9c	-0.6794069
188	0x3cd5b204	0.026085861
189	0xbe5bcf11	-0.21465708
190	0xbf48ed09	-0.78486687
191	0xbf14a3f2	-0.5806266
192	0xbf52fcfa	-0.8241726
193	0xbf3a5eed	-0.72801095
194	0xbf6d51cd	-0.92702943
195	0xbe4e2793	-0.20132284
196	0xbf3dc7f1	-0.7413321
197	0xbf5adde3	-0.8549482
198	0xbf529f88	-0.82274675
199	0xbf547694	-0.82993436
200	0xbf7c3656	-0.9852041
201	0xbf1adbc7	-0.60491604
202	0xbf17fbb7	-0.5936846
203	0xbefd55e5	-0.49479595
204	0xbf442570	-0.76619625
205	0xbf4d16e4	-0.80113053
206	0xbf23c724	-0.6397574
207	0xbf5d1e98	-0.8637481
208	0xbf45984a	-0.771855
209	0xbf71a6f1	-0.9439536
210	0xbe11e42b	-0.14247195
211	0xbf07e58f	-0.53084654
212	0xbf4e60e9	-0.80616623
213	0xbf0e2c9c	-0.5553682
214	0xbf766b36	-0.9625734
215	0xbf54f396	-0.8318418
216	0xbe4407f1	-0.19143654
217	0xbf8112ad	-1.0083824
218	0xbf2d8275	-0.67777187
219	0xbf336fe1	-0.7009259
220	0xbf3dc391	-0.74126536
221	0xbf4f2748	-0.80919313
222	0xbf6f6317	-0.93510574
223	0xbf77bab4	-0.9676926
224	0xbee28e03	-0.4424897
225	0xbf03db53	-0.5150654
226	0xbf63165b	-0.88705987
227	0xbf5fa990	-0.87368107
228	0xbf7a78a3	-0.9784033
229	0xbf9327f8	-1.1496572
230	0xbf5bbb4c	-0.8583267
231	0xbf80cace	-1.0061891
232	0xbf8fab42	-1.1224139
233	0xbef3f064	-0.4764434
234	0xbee205d1	-0.44145063
235	0xbf80ff1b	-1.0077852
236	0xbe3f180a	-0.18661514
237	0xbf79fc9b	-0.9765107
238	0xbf5f3ddc	-0.87203765
239	0xbf67ccf5	-0.90547115
240	0xbf235248	-0.63797426
241	0xbf8dfeaf	-1.1093348
242	0xbefe38ea	-0.49652797
243	0xbf89e60b	-1.0773329
244	0xbf2ed3b6	-0.68291795
245	0xbe96afa5	-0.2943088
246	0xbf40eff0	-0.75366116
247	0xbf6f6804	-0.9351809
248	0xbf3350d7	-0.70045227
249	0xbf2f6a0d	-0.68521196
250	0xbf5f88b4	-0.8731797
251	0xbf0dd48d	-0.5540245
252	0xbf63e882	-0.89026654
253	0xbf464af3	-0.77458113
254	0xbf68b02c	-0.90893817
255	0xbf31c198	-0.69436026

fc2.weight f4 [300, 404]
0	0x3c1f56f5	0.009725322
1	0xbc5b65c2	-0.01339096
2	0xbd2aab09	-0.041667018
3	0x3c2a84ed	0.010407669
4	0x3c7d00fb	0.015442128
5	0x3c1891e2	0.009312125
6	0x3c1174e6	0.008877968
7	0xbd0d9c96	-0.03457316
8	0xbc03dfef	-0.008048995
9	0xbb8c42de	-0.004280432
10	0xbc80cfab	-0.015724024
11	0x3d13e5ba	0.036107756
12	0xbb5b1f9f	-0.0033435596
13	0x3c5fba9c	0.013655331
14	0x3cbdc104	0.023163326
15	0x3c8eef48	0.017448083
16	0xbc072cc7	-0.008250422
17	0x3cb866b0	0.022509903
18	0xbc91526a	-0.017739493
19	0xbb25cdbc	-0.002529963
20	0x3d22653e	0.039647333
21	0x3bd69dcd	0.006549573
22	0xbd492386	-0.049106143
23	0xbd2e73db	-0.042590957
24	0xbc3968d4	-0.011316497
25	0xbd07ce25	-0.03315558
26	0xba67b8e9	-0.00088395044
27	0xbd354c2c	-0.044262096
28	0xbcd9a531	-0.026568027
29	0xbc4795ff	-0.012181758
30	0xbc5103af	-0.012757226
31	0xbd758b82	-0.0599475
32	0xbd5c5bfd	-0.053798664
33	0x3d58a8d0	0.052895367
34	0xbd6f04b3	-0.05835409
35	0xbd926bd0	-0.0714947
36	0xbc6e6f85	-0.0145529555
37	0x3b1f1a6c	0.0024277223
38	0xbcee4aaa	-0.029088337
39	0xbb755d62	-0.0037439694
40	0xbc8dd939	-0.017315494
41	0xbda3a6e5	-0.07990817
42	0x3d2924e9	0.041294966
43	0x3bcfea9c	0.0063451063
44	0x3cc57f7b	0.024108639
45	0xbd6375e2	-0.055532344
46	0xbc995f71	-0.018722268
47	0xbd33cca3	-0.04389633
48	0xbd5a2d84	-0.053266063
49	0xbd1667cd	-0.036720086
50	0xbcc64352	-0.024202023
51	0xbda1ff90	-0.07910073
52	0xbd578098	-0.05261287
53	0x3a875ff7	0.0010328282
54	0xbb5400f3	-0.0032349199
55	0x3c159493	0.009129661
56	0xbd823cda	-0.06359263
57	0x3d274985	0.040841598
58	0xbd673f1d	-0.056456674
59	0xbdd22424	-0.102607995
60	0xbcca3d38	-0.024687394
61	0xbd0d12e8	-0.03444186
62	0xbcd9819f	-0.026551066
63	0xbda034ce	-0.07822572
64	0xbda2eaea	-0.079549626
65	0x3ad036a7	0.0015885428
66	0x3ccc77e7	0.024959518
67	0xbc688959	-0.0141929025
68	0xbd22699c	-0.0396515
69	0xbd5177ed	-0.05113976
70	0xbd56e160	-0.052461028
71	0xbb733aab	-0.0037113826
72	0xbd866a87	-0.06563287
73	0xbc7b50d4	-0.015339095
74	0xbd8daadf	-0.06917357
75	0x3b7a4ec8	0.003819393
76	0x3d03a20e	0.03213697
77	0xbc8f49c1	-0.017491223
78	0xbd62f767	-0.055411723
79	0x3bc7fde2	0.0061032632
80	0xbd9b6062	-0.07586743
81	0xbcbca634	-0.02302847
82	0xbd9fcf68	-0.078032315
83	0xbb6955a6	-0.003560403
84	0xbd40fae8	-0.047114283
85	0x3d1b2529	0.037877236
86	0x3c585b13	0.013205308
87	0xbb8c243c	-0.0042767804
88	0x3c8433fa	0.016138066
89	0xbd80fd7c	-0.06298348
90	0xba6682a9	-0.00087932736
91	0xbd5a628a	-0.05331663
92	0x3d0de4b5	0.03464194
93	0x3bf2fdf5	0.007415528
94	0xbdab0c81	-0.08351994
95	0x3c3d4cd2	0.01155396
96	0xbd5a01bf	-0.05322432
97	0x3d0d0e5b	0.03443752
98	0xbdbacda6	-0.091212556
99	0xbda0b2eb	-0.07846626
100	0xbc1ef3ae	-0.009701652
101	0xbcff3334	-0.031152345
102	0xbd539397	-0.051654425
103	0x3c3378e7	0.010954118
104	0x3c67fdaa	0.014159599
105	0xbd25c2a5	-0.04046883
106	0xbd6e9dc7	-0.058255937
107	0x3d31bf57	0.043395367
108	0xbcb6fce9	-0.022337394
109	0xba5f975a	-0.0008529328
110	0xbc8a27e2	-0.01686472
111	0xbb6c2818	-0.003603464
112	0x3d08dd85	0.033414382
113	0x3cb3e16f	0.021958081
114	0xbd2ccc22	-0.042186864
115	0xbc3e6d78	-0.011622779
116	0xbd7df830	-0.06200427
117	0xbc4254b2	-0.011861013
118	0xbdac8fbf	-0.08425855
119	0xbd8329de	-0.0640447
120	0xbbc7d633	-0.0060985326
121	0xbc815b95	-0.01579074
122	0xbcaebdf5	-0.021330813
123	0xbd3d6ea3	-0.04624809
124	0x3cb4fe5b	0.022093942
125	0xbc167abb	-0.009184535
126	0xbd71c33b	-0.059024077
127	0xbd14cb70	-0.036326826
128	0xbcd20cb9	-0.025640832
129	0xbd00663c	-0.0313475
130	0xbd40c86c	-0.047066137
131	0xbd16c57c	-0.03680943
132	0xbd18803f	-0.03723168
133	0x3c28a2c2	0.010292711
134	0x3ce5f14c	0.02806916
135	0xbda5c6ca	-0.08094557
136	0x3bcef43a	0.006315735
137	0xbcd583b0	-0.02606377
138	0xbcc73985	-0.02431942
139	0x3c8b95ac	0.017039143
140	0xbd10ac38	-0.03532049
141	0x3cdfeeda	0.027335573
142	0xbcd3fc18	-0.025877044
143	0x3bd1e87d	0.0064058886
144	0xbda49626	-0.08036451
145	0xbd9df3cf	-0.077125184
146	0x3c215088	0.00984586
147	0x3c8acae7	0.016942455
148	0xbcea64b6	-0.028612476
149	0xbc4098ac	-0.01175515
150	0xbc43b154	-0.011944134
151	0xbdb4b4f8	-0.088235795
152	0xbd98f853	-0.07469239
153	0xbd102704	-0.03519346
154	0xbb5d6b72	-0.0033785966
155	0xbc9abbcc	-0.018888377
156	0xbd3b4417	-0.045719232
157	0x3ca9ae39	0.020712959
158	0xbd8b7d17	-0.06810968
159	0x3b03bf49	0.0020103029
160	0xbbc2b0a4	-0.0059414674
161	0xbc02e382	-0.007988812
162	0xbc6c35ce	-0.014417125
163	0xbd222df3	-0.0395946
164	0xbd437f6f	-0.047728952
165	0xbd2b0691	-0.04175431
166	0xbd0f47ec	-0.0349807
167	0xbca7116d	-0.020394051
168	0x3cb1fa55	0.021725813
169	0x3a8a17de	0.0010535677
170	0xbcf4c4fd	-0.029879088
171	0xbd0d39ef	-0.034479078
172	0xbcf212ac	-0.02954992
173	0xbd6a8b23	-0.057261597
174	0x3c80ae59	0.015708135
175	0xbd843ec3	-0.06457283
176	0xbd801fcb	-0.06256064
177	0x3d309703	0.043112766
178	0x3d6b8d8e	0.057508044
179	0x3d1825ec	0.03714554
180	0x3bb57350	0.005537428
181	0xba24ad10	-0.0006281892
182	0xbcbd82c2	-0.02313364
183	0xbd87a145	-0.066225566
184	0xbd17f0aa	-0.03709475
185	0xbc5fa09c	-0.013649132
186	0xbd3e4329	-0.046450768
187	0x3cc7bbfd	0.024381632
188	0x3c8b0e21	0.01697451
189	0xbd211f5d	-0.03933655
190	0xbd72713b	-0.059190016
191	0xbd3294c0	-0.04359889
192	0xbdb8f082	-0.09030248
193	0xbd770d1f	-0.060315248
194	0xbc25db96	-0.010123154
195	0x3cdf2ad0	0.027242094
196	0xbdc05c40	-0.09392595
197	0x3cf50d66	0.029913615
198	0xbba4ce69	-0.005029489
199	0x3c1e6885	0.009668474
200	0xbc90e46e	-0.017687049
201	0x3d07c060	0.033142447
202	0xbd509907	-0.05092719
203	0xbd71bd59	-0.059018467
204	0xbd02c9e9	-0.031930838
205	0xbd5e1caf	-0.054226574
206	0x3c729b5a	0.0148075465
207	0xbde36d69	-0.11104853
208	0x3beef8fe	0.007292866
209	0xbd6beb7c	-0.057597622
210	0xbbd1d7de	-0.006403907
211	0x3d52305f	0.05131566
212	0x3d0f514d	0.034989644
213	0xbbb047d2	-0.0053796554
214	0xbd866cae	-0.06563698
215	0x3c0f61d7	0.008751354
216	0x37d3bea3	2.5241932e-05
217	0xbcbe7bd0	-0.023252398
218	0xbcc2ba68	-0.023770526
219	0xbd36771f	-0.044547196
220	0xbdb058be	-0.08610676
221	0x3ce55f98	0.027999684
222	0xbc726add	-0.014795986
223	0xbd9aef51	-0.07565177
224	0xbcf02078	-0.029312357
225	0x3c775f75	0.015098442
226	0xbd796b39	-0.06089327
227	0xbd594c92	-0.05305154
228	0x3bd6dfa0	0.00655742
229	0x3c7594af	0.014989062
230	0xbd28a00a	-0.04116825
231	0x3c8f90b0	0.017525047
232	0xbc2a4140	-0.010391533
233	0x3cecc4da	0.02890246
234	0xbd66f950	-0.056390107
235	0xbd5d9521	-0.0540973
236	0xbdae7a6a	-0.085194424
237	0xbd96b58e	-0.073588476
238	0xbd535678	-0.051596135
239	0x3cd36b2a	0.025807936
240	0xbcddd749	-0.027080195
241	0xbd6a9cb1	-0.05727834
242	0x3c1a98ec	0.0094358735
243	0x3c4a2ed3	0.012340265
244	0xbbed51f4	-0.0072424356
245	0xbd985f86	-0.07440095
246	0xbc6a71a6	-0.014309322
247	0x3ca39600	0.019968987
248	0xbcb71c36	-0.02235232
249	0xbd94b623	-0.07261302
250	0xbd6ddd2a	-0.058072247
251	0xbd44947a	-0.04799316
252	0xbd6b9e81	-0.057524208
253	0x3ce68599	0.028139876
254	0xbc89a206	-0.016800892
255	0xbc27c98a	-0.010240922

fc2.bias f4 [300]
0	0xbcc1fa4a	-0.023678917
1	0xbd5e875a	-0.0543283
2	0xbd6b719d	-0.057481397
3	0xbd93889a	-0.07203789
4	0xbd059611	-0.032613818
5	0xbd84c439	-0.06482739
6	0xbd71ae64	-0.059004202
7	0xbd95ddd0	-0.07317698
8	0xbba03665	-0.004889297
9	0xbd04ff42	-0.032469995
10	0xbdb36a37	-0.08760493
11	0xbd4ae9a0	-0.04953921
12	0xbd437603	-0.047719967
13	0xbd87c43d	-0.06629226
14	0xbd49f9f2	-0.049310632
15	0xbdd46dad	-0.103724815
16	0xbda82b0c	-0.082113355
17	0xbda29380	-0.0793829
18	0x3c89af9f	0.016807375
19	0xbc97de73	-0.01853869
20	0xbcad4b30	-0.021154016
21	0xbd5847b9	-0.052802775
22	0xbda9f75a	-0.08299132
23	0xbd474cd4	-0.048657253
24	0xbda881b5	-0.08227865
25	0xbd2b6b89	-0.0418506
26	0xbdb6ba9e	-0.08922313
27	0xbcfd127b	-0.030892601
28	0x3cacc52a	0.021090109
29	0xbcdf7732	-0.027278516
30	0x3c6b359f	0.014356046
31	0xbdc7ec7d	-0.097619034
32	0xbe71b048	-0.23602402
33	0xbd84751f	-0.064676516
34	0xbcef5041	-0.029213073
35	0xbb1679a0	-0.0022960678
36	0xbd85ea48	-0.06538826
37	0xbc2e3fc6	-0.010635322
38	0x3f40a005	0.7524417
39	0x3c9b7feb	0.018981894
40	0xbd7d8541	-0.06189466
41	0xbc8ad496	-0.016947072
42	0xbd9d0386	-0.07666688
43	0xbcc31106	-0.023811828
44	0xbd7d2822	-0.06180585
45	0xbdc2bafe	-0.09508322
46	0xbd47559c	-0.048665628
47	0xbd98f86c	-0.07469258
48	0xbdb7e02a	-0.08978303
49	0xbd312a37	-0.04325315
50	0xbd658855	-0.05603822
51	0xbdd8ee05	-0.105922736
52	0xbd88bb44	-0.06676343
53	0xbb97f3ee	-0.004637233
54	0xbccf0f4a	-0.025275845
55	0xbd7ea69e	-0.062170617
56	0xbd64e242	-0.05587984
57	0xbd208f11	-0.03919894
58	0xbd367012	-0.044540472
59	0xbd8dce18	-0.06924075
60	0xbc982b60	-0.01857537
61	0xbdd55a70	-0.1041764
62	0xbcabd9ed	-0.020977939
63	0xbcbe95bd	-0.02326476
64	0xbb441d1d	-0.002992458
65	0xbab459e7	-0.0013759703
66	0xbd57f520	-0.052724004
67	0xbbb1418d	-0.0054094256
68	0xbd65cd46	-0.056103967
69	0xbc069af9	-0.008215659
70	0xbd8c566d	-0.06852422
71	0xbca64b9f	-0.02029973
72	0xbd9ed40c	-0.077552885
73	0x3a95212a	0.0011377682
74	0xbbddbedd	-0.0067671374
75	0xbd31c2c7	-0.043398645
76	0xbd9507c4	-0.07276872
77	0xbca71054	-0.020393528
78	0xbbcd9483	-0.0062738075
79	0xbc17fb33	-0.009276199
80	0xbd4fc874	-0.050728276
81	0xbce33478	-0.02773498
82	0xbccaabff	-0.024740217
83	0xbcbfdbe2	-0.023420278
84	0xbd9644cf	-0.07337343
85	0xbbf7217a	-0.0075418325
86	0xbc9ffd35	-0.019529918
87	0xbdb2abd8	-0.08724183
88	0xbd56da21	-0.052454118
89	0xbda3e149	-0.08001954
90	0xbcb78d8f	-0.022406368
91	0xbccc9c86	-0.02497698
92	0x3d3ff7a3	0.046867024
93	0xbddb8ae4	-0.10719851
94	0xbd474b39	-0.048655722
95	0x3c11ae53	0.00889166
96	0xbda066ae	-0.078320846
97	0xbde26200	-0.11053848
98	0xbd9d64f2	-0.076852694
99	0xbd0b413d	-0.033997763
100	0xbd4bd937	-0.0497677
101	0xbb27c411	-0.0025599042
102	0xbd82578a	-0.06364353
103	0xbba5e31d	-0.0050624744
104	0xbd0080a0	-0.031372666
105	0xbcd6352e	-0.026148405
106	0xbd6b5dd9	-0.057462547
107	0xbda20c39	-0.079124875
108	0x3c982a29	0.018574791
109	0xbc750083	-0.014953735
110	0xbda1bbae	-0.07897125
111	0xbb089a34	-0.0020843865
112	0xbdd92d9f	-0.10604405
113	0xbd9f9298	-0.077916324
114	0xbc8184ee	-0.015810456
115	0xbc85908d	-0.016304279
116	0xbd0b9fa1	-0.03408778
117	0xbd8813c9	-0.06644399
118	0xbe030c2b	-0.1279761
119	0xbd9a85dd	-0.07545064
120	0xbc8d6572	-0.017260287
121	0xbd832d16	-0.06405084
122	0x3c915d71	0.017744752
123	0xbd3b4d23	-0.04572786
124	0xbb08f1d3	-0.0020896092
125	0xbdca1b33	-0.09868469
126	0xbd982474	-0.07428828
127	0xbd722ddc	-0.059125766
128	0x3a9707f8	0.0011522761
129	0xbdb75a54	-0.089527756
130	0xbd805f60	-0.06268191
131	0xbda03cc1	-0.07824088
132	0xbd1f5d9b	-0.03890763
133	0xbdbb6157	-0.091494255
134	0xbd1d3cd5	-0.038388092
135	0x3ccf33af	0.0252932
136	0xbdaa5556	-0.08317058
137	0xb9f4bbf0	-0.0004667933
138	0xbda1e9a0	-0.079058886
139	0xbdfdb1bf	-0.12387418
140	0xbd1074c0	-0.03526759
141	0xbcc08bd5	-0.023504177
142	0xbd4e9fb3	-0.05044527
143	0xbcbd420e	-0.023102786
144	0xbca28331	-0.019837948
145	0xbdd560a9	-0.10418827
146	0xbd92c480	-0.07166386
147	0xbdc9b8ab	-0.09849676
148	0xbd8c7b4f	-0.06859457
149	0xbe44fff8	-0.1923827
150	0x3de5e556	0.11225383
151	0xbdd728b6	-0.10505812
152	0xbd0d1dea	-0.034452356
153	0xbdcc4e0c	-0.09975824
154	0x3f3b675b	0.7320458
155	0xbd375bcb	-0.044765275
156	0xbd4702c3	-0.04858662
157	0xbd4905da	-0.049077846
158	0xbdb1fbba	-0.08690591
159	0xbd7571fd	-0.05992316
160	0xbd90ade4	-0.07064417
161	0xbce03fb7	-0.027374132
162	0xbd4a30a3	-0.04936279
163	0x3f7ea282	0.9946672
164	0xbb84d6c6	-0.0040539233
165	0xbd09a310	-0.033602774
166	0xbbe2be42	-0.006919653
167	0x3b09b43f	0.0021011976
168	0xbd368171	-0.04455704
169	0xbbf74ff2	-0.007547372
170	0xbd94358a	-0.07236774
171	0xbcabebd8	-0.020986483
172	0xbd9b4f0a	-0.07583435
173	0x3f6271d5	0.88454944
174	0xbe82a3bc	-0.25515544
175	0xbd82831c	-0.063726634
176	0xbdaf515d	-0.08560441
177	0xbd176a75	-0.03696676
178	0xbd78e8a1	-0.060768727
179	0xbd72ed62	-0.059308417
180	0xbd0ca178	-0.034333676
181	0xbd9a316b	-0.07528957
182	0xbc514212	-0.0127721
183	0xbce2d531	-0.027689548
184	0xbc47ee37	-0.012202791
185	0xbd1f9238	-0.038957804
186	0x3eabdbd6	0.3356616
187	0xbdaf0e57	-0.08547657
188	0xbd27c27b	-0.040956955
189	0x3c85e108	0.016342655
190	0x3e6ded5b	0.23235075
191	0xbda4beff	-0.08044242
192	0xbd30834d	-0.04309397
193	0xbc81d4d0	-0.015848547
194	0xbc8a2127	-0.016861511
195	0xbc1dbbc8	-0.00962729
196	0x3bfa27f8	0.007634159
197	0xbc9ffbb9	-0.01952921
198	0x3f5cce83	0.8625261
199	0xbc066873	-0.008203614
200	0xbccd28d0	-0.025043875
201	0xbdb40df1	-0.087917216
202	0xbdc58795	-0.09645001
203	0xbdc02307	-0.09381681
204	0xbd0a0b2b	-0.033702057
205	0x3f08d215	0.5344556
206	0xbc81b24a	-0.015832085
207	0xbcc22ce3	-0.023703044
208	0xbd458f83	-0.048232567
209	0x3f7728dd	0.9654673
210	0x3c717e7a	0.014739627
211	0x3a0d1d5d	0.00053830986
212	0xbd81d306	-0.06339078
213	0xbd53203c	-0.051544413
214	0xbcc2c8fd	-0.02377748
215	0xbb7ebc95	-0.0038869728
216	0xbcd30890	-0.025760919
217	0xbda58015	-0.0808107
218	0xbd218aa4	-0.03943886
219	0xbd8c0d2d	-0.068384506
220	0xbd58d339	-0.052935813
221	0xbd1b4862	-0.037910827
222	0xbd64123e	-0.05568146
223	0xbd32183d	-0.043480147
224	0xbd9ff9c5	-0.07811312
225	0xbdb5ee76	-0.088833734
226	0xba62a096	-0.0008645145
227	0xbd59c78f	-0.05316883
228	0xbc205902	-0.009786846
229	0x3f78dfb5	0.9721635
230	0xbd9eff40	-0.07763529
231	0xbb5f4bae	-0.0034072208
232	0xbc11a23b	-0.008888776
233	0xbd59086e	-0.052986555
234	0xbdb8e843	-0.090286754
235	0x3d799b20	0.060938954
236	0xbda09c8c	-0.07842359
237	0xbd2b191c	-0.041771993
238	0x3b0bbd18	0.0021322425
239	0xbdb1de00	-0.08684921
240	0xbdb6e2b6	-0.089299604
241	0xbdb73395	-0.08945385
242	0xbd175df5	-0.03695484
243	0x3cb85038	0.022499189
244	0xbbefdeae	-0.0073202467
245	0xbdbb17a5	-0.09135369
246	0xbd09512e	-0.033524685
247	0x3bcf5883	0.00632769
248	0xbd1f5582	-0.038899906
249	0xbd7f33dd	-0.06230532
250	0xbd91e2d9	-0.07123346
251	0x3f83e77b	1.0305017
252	0xbd28e170	-0.04123062
253	0xbc88349a	-0.016626645
254	0xbcf56a3c	-0.029957883
255	0xbda8d7dd	-0.08244298

fc3.weight f4 [1, 300]
0	0x3b143025	0.0022611704
1	0xbc2dce14	-0.010608215
2	0xbcf27712	-0.029597793
3	0xbc81a6f9	-0.01582669
4	0x3b368472	0.002784994
5	0x3bf1ea56	0.0073826713
6	0xbce38a8c	-0.027776025
7	0x3c66f7bb	0.0140971495
8	0x3cf9ffcb	0.03051748
9	0x3cdaa5bc	0.026690356
10	0xbbdc9150	-0.00673119
11	0x3c975ae5	0.01847596
12	0xbb937904	-0.00450051
13	0xbbced8f0	-0.006312482
14	0xbb050b3a	-0.002030088
15	0xbc0624be	-0.008187471
16	0x3ca3f4e7	0.02001424
17	0xbca1c03f	-0.01974499
18	0xbc963345	-0.018334994
19	0xbc502e7c	-0.012706395
20	0x3ca1038a	0.019655008
21	0x3c1852d4	0.0092970915
22	0xbc5c0e56	-0.013431152
23	0xbc2bb2c8	-0.0104796365
24	0x3d3f0391	0.04663426
25	0x3ba26379	0.0049557057
26	0xbc8a076f	-0.016849248
27	0x3cddabde	0.027059492
28	0xbbfca913	-0.007710585
29	0xbcdb5cdc	-0.026777677
30	0x3aec0df2	0.0018009527
31	0x3c9a2912	0.018818412
32	0xbdb981d5	-0.090579666
33	0xbbbd9e82	-0.005786718
34	0xbc82adb4	-0.015951969
35	0xbc12b569	-0.008954384
36	0xbbcba847	-0.0062151286
37	0xbc0e5e7f	-0.008689522
38	0x3d1350be	0.035965674
39	0xba5b6796	-0.00083696225
40	0xbbf1a811	-0.0073747714
41	0x3b3d1636	0.002885235
42	0xbb352c6d	-0.0027644888
43	0xbc07d760	-0.0082910955
44	0x3b9763e7	0.0046200636
45	0x3c9d0c4b	0.0191709
46	0xbc811aad	-0.01575979
47	0xba2da2ca	-0.0006623684
48	0xbc50e7c9	-0.012750574
49	0x3c74bc6e	0.014937503
50	0xbc55c72d	-0.0130479755
51	0x3af347eb	0.0018560862
52	0xbc7b0911	-0.015321986
53	0xbc2119e8	-0.009832837
54	0xbbd15666	-0.0063884733
55	0xbc725956	-0.014791807
56	0x3caf2434	0.021379568
57	0x3b6dfdff	0.0036314724
58	0x3c8ecda1	0.017432036
59	0x3c8755ff	0.016520498
60	0xbb96bf08	-0.0046004094
61	0x3be16118	0.0068780296
62	0x3cb518fc	0.02210664
63	0xbcbaa660	-0.022784412
64	0x3c3886c5	0.0112626
65	0xbc67e405	-0.014153485
66	0xbc2dc412	-0.010605829
67	0xba9515c4	-0.0011374285
68	0xbb16412d	-0.0022927031
69	0x3b8148fe	0.003945469
70	0x3bd1f26d	0.0064070732
71	0xb8a32074	-7.7784905e-05
72	0x3b55f027	0.0032644363
73	0x3b163cc9	0.0022924414
74	0x3c8596a4	0.016307183
75	0x3cd18037	0.025573833
76	0xbca81239	-0.020516502
77	0xbbac01b0	-0.0052492246
78	0x3a4c92b0	0.00078038406
79	0x3be4dadf	0.0069840993
80	0xbc1740e2	-0.009231778
81	0x3bf61b4c	0.0075105783
82	0xbc9f1d6b	-0.019423207
83	0xbc65e176	-0.014030805
84	0x3be966d1	0.0071228524
85	0xba84f703	-0.0010144416
86	0x3c33bbb8	0.010970049
87	0x3c9342e3	0.01797623
88	0xbb63f607	-0.0034784095
89	0x3bf92fa6	0.007604557
90	0x3b4baa52	0.003107686
91	0x3b996407	0.0046811136
92	0xbc29ffff	-0.010375976
93	0xbbd82719	-0.0065964577
94	0xbc896eba	-0.016776431
95	0xbd20bfe0	-0.039245486
96	0xbb99f847	-0.0046987864
97	0xbbb13e4d	-0.005409038
98	0xbcf4ccf7	-0.029882891
99	0x3c36974a	0.011144469
100	0x3c4a864c	0.01236112
101	0xbc79a339	-0.015236669
102	0x3bbd99e8	0.0057861693
103	0xbaa6eeec	-0.0012735999
104	0x3d121bdc	0.0356711
105	0x3c6bad36	0.014384558
106	0xbb6452db	-0.0034839425
107	0xbbf8b569	-0.007589985
108	0x3cf94f2d	0.030433262
109	0xbcf6aac9	-0.030110734
110	0x3c5645f2	0.0130782
111	0xbbb0d954	-0.0053970013
112	0x3b717e8e	0.0036849114
113	0xbadfcfd4	-0.0017075487
114	0x3c6190ad	0.013767404
115	0x3bc72ca2	0.0060783187
116	0x3c8c3a0a	0.017117519
117	0x3c9386f7	0.018008692
118	0x3c9aefd8	0.018913195
119	0xbc84a142	-0.016190175
120	0x3c85e080	0.016342402
121	0x3c80bc23	0.01571471
122	0x3bd4007f	0.0064697857
123	0x3d257c95	0.040402014
124	0x3cd876bf	0.02642381
125	0xbb4cd2a5	-0.0031253484
126	0x3b64c256	0.0034905872
127	0x3c3ce3bd	0.011528906
128	0x399e9af2	0.00030251552
129	0xbc011331	-0.007878111
130	0x3c158167	0.00912509
131	0xba5bac37	-0.0008379849
132	0xbb3cd208	-0.0028811712
133	0xbd14045c	-0.03613697
134	0x3b0e3ebc	0.0021704873
135	0x3cd1915e	0.025582012
136	0xbc4dedb4	-0.01256888
137	0x3be77618	0.0070636384
138	0xbc7da9bb	-0.015482361
139	0xbca9e28a	-0.020737905
140	0x3c8745c1	0.016512753
141	0xbce1fd9e	-0.027586754
142	0xbbe06f69	-0.0068492186
143	0xbc93e0b8	-0.01805149
144	0xbc7b6e9c	-0.015346196
145	0xb8a0198c	-7.634153e-05
146	0xbc8f60e1	-0.01750225
147	0xbb9568f5	-0.004559631
148	0x3caee82f	0.021350948
149	0xbd6153c3	-0.055011522
150	0xbdbc3345	-0.091894664
151	0xbb3ab891	-0.0028491358
152	0xbbc66eff	-0.0060557122
153	0xbb1607e6	-0.0022892891
154	0x3c78f8ea	0.0151960645
155	0xbc36a964	-0.011148784
156	0x3cd1cb79	0.025609719
157	0xbc370a4d	-0.0111718895
158	0x38cb8b55	9.705747e-05
159	0xbc05e290	-0.0081716925
160	0x3c87ccfb	0.016577234
161	0x3cdbe235	0.026841262
162	0x3c437628	0.011930026
163	0x3cd6f9ba	0.026242126
164	0xbca90029	-0.02062996
165	0x3c04e094	0.008110184
166	0xbafbac6b	-0.0019201165
167	0xbc208211	-0.009796635
168	0x3cb46b69	0.022023873
169	0x3d07193b	0.032983046
170	0xbbdebbca	-0.0067972885
171	0x3c339fc4	0.010963384
172	0x3b697267	0.0035621168
173	0x3cc908da	0.024540354
174	0xbcba5703	-0.022746569
175	0xbbec079f	-0.007203057
176	0x3c20e391	0.009819881
177	0xbc93d4b5	-0.018045763
178	0xbbe85f9b	-0.007091475
179	0x3aecc8bd	0.0018065196
180	0x3c2af97e	0.01043546
181	0x3c5d2a54	0.013498861
182	0xbaeb278a	-0.0017940861
183	0x3bc1f359	0.005918902
184	0xbba0d323	-0.004907982
185	0x3aac5aad	0.0013149582
186	0x3c778f3f	0.015109836
187	0x3b5bdc7b	0.0033548165
188	0x3bb54583	0.005531968
189	0xbc2d59be	-0.010580478
190	0x3ca09881	0.01960397
191	0x3cb3c160	0.021942794
192	0xbbc1775d	-0.005904122
193	0x3cc2e5de	0.02379125
194	0xba352c5c	-0.0006911212
195	0xbcdb478b	-0.026767513
196	0xbc9c3eed	-0.019072974
197	0x3bcdf2a9	0.006285031
198	0x3ce149f9	0.027501093
199	0x3aabd310	0.0013109166
200	0x3c084100	0.008316278
201	0x3aa7d6e0	0.0012805127
202	0x3c4bd2af	0.012440368
203	0x3c174d64	0.00923476
204	0x3ba8a2d2	0.005146363
205	0x3c3f2f88	0.011669047
206	0xba1915bd	-0.0005839726
207	0x3cf1af20	0.029502451
208	0xbc36ee67	-0.011165238
209	0x3d3405ab	0.043950718
210	0xbcb9c807	-0.022678388
211	0x3b49cef7	0.0030793527
212	0xbbc325a3	-0.0059554144
213	0xbc6da41d	-0.01450446
214	0x3cd703f9	0.026247011
215	0xbb8b2298	-0.0042460673
216	0x3ba5393e	0.005042224
217	0xbaa02bb0	-0.0012220051
218	0x3caea510	0.021318942
219	0xbc0dd638	-0.008657031
220	0x3ca51afc	0.020154469
221	0xbca03050	-0.019554287
222	0x3c63397d	0.013868687
223	0x3b8ccfac	0.0042972174
224	0xbcdc7159	-0.026909517
225	0x3b481eaa	0.0030535855
226	0x3b30437b	0.002689569
227	0x3c547242	0.012966694
228	0x3ba38739	0.004990485
229	0x3d5cb841	0.053886656
230	0xbce405a9	-0.02783473
231	0x3c2f9c42	0.010718407
232	0x3ba1f18d	0.004942125
233	0x3bfc59c7	0.007701132
234	0xbbc76069	-0.006084491
235	0x3cefb17d	0.029259438
236	0x3c3dfad7	0.011595449
237	0x3b89e693	0.004208395
238	0xbc0933c3	-0.008374157
239	0x3c1cb2b3	0.00956409
240	0x3cd6f4bc	0.026239745
241	0x3c261350	0.01013644
242	0x3c964c71	0.018346997
243	0x3ccd7398	0.025079533
244	0x3bbc6ccf	0.0057502757
245	0x391ac0ec	0.00014758453
246	0x3c51d253	0.012806493
247	0x3c085e96	0.008323332
248	0x3ca4ce32	0.020117853
249	0x3bc9b68e	0.0061557954
250	0x3cbcb9c3	0.023037797
251	0x3d5e501c	0.054275617
252	0x3c63ba60	0.013899416
253	0x3ce8457b	0.028353443
254	0x3c52d3d5	0.0128678875
255	0x3c00c7d7	0.0078601455
