checkpoint_actor.pth (torch_old, 541443 bytes, 6 tensors)

fc1.weight f4 [400, 33]
00000000: 5690 1cbf a18f 3a3e abea 393e 2446 213d
00000010: 6e73 2abe 3a0b 383e 24ea a43d 772d 083b
00000020: 665c a1bd 47be 5dbe 524e a3bd a090 003e
00000030: ce40 84bc da58 b53e 978f 513d ae05 62be
00000040: e71b 53be a91d 46be b08b 883e 4dda 6fbe
00000050: 3e49 49bd eb14 003e 4b73 ba3d 25b5 67be
00000060: c4f2 8e3c d22f b7be 6f21 61be 3ac1 1a3e
00000070: 377e acbc 6761 b1bc ada9 c9bd f07a d3bb
00000080: ff2a 7b3f aa04 d53e bd2e 243f 86d0 683e
00000090: 65f7 dcbe eb18 b93e 6f5b fdbd ab61 babe
000000a0: c856 03bd 1010 a03c f7e9 bbbd 818d c7bc
000000b0: 68a1 2bbe 0996 5cbd 408c 733c 7f0a 133d
000000c0: f424 a83e d6e7 b2be 4d63 c9bc a228 c8bd
000000d0: ee38 3cbd 2897 bebe 7ee5 21bd e46d 06ba
000000e0: 6ed7 aa3e 9516 373e f020 d53e accf 45bd
000000f0: 67b2 953c 8a66 91bc 3703 0d3d 1590 89bc
00000100: 28de 51bc ab8d 74be 82f6 84bd 9c66 eebd
00000110: 855a 83be b15f abbe 29b8 1f3e c71e 8b3e
00000120: fb44 c93d c574 c23d 6a15 f4be b4b8 c73d
00000130: 53ce b6bc 10a6 5fbd 99ba bbbe 21fd 5cbd
00000140: bfdf 053e c922 143e 5337 39be 2c50 233e
00000150: 2eaf 9d3d 456b e1bd 660b fb3d ce75 1c3e
00000160: a342 8e3e 1a8b 093f c990 ecbd cf8d 41bd
00000170: b966 1abe f88a 3e3e 8321 abbd e07a 093c
00000180: ff22 80be 8ab2 c13c 2432 d23d 565e 1f3d
00000190: 44fd a23e 437e a2be 01a6 efbd de63 55bd
000001a0: 143d 45bd ae6d 0abf 171d 3abd d9da 8cbe
000001b0: 31e1 173e bce1 4bbd f660 2b3e 03b7 73be
000001c0: d8c8 cbbe 76c5 47bd 4835 62be 83ee 06bf
000001d0: af13 21bd d33f 58bc 5bdc edbe 7851 1fbe
000001e0: 5f87 41be eee0 2abb 01e8 653e 0879 cbbd
000001f0: 5615 bcbe 3c1f 683e cb22 713e 515f b53d
00000200: 0dba 49bd 8142 37be e381 1dbd 1ba8 21be
00000210: f38f 25bb 718c 6a3d c3d5 8cbe 2823 6abe
00000220: 68ee 893e 67e0 153e 87eb e2be 360f 483d
00000230: f53d e43d 380a 5f3e 2e5e 4b3e 960f 2abe
00000240: 36c4 fc3d ea21 ec3d bc29 953e aad8 ae3e
00000250: 513d bc3e b59b 96bd 3650 acbd ee6b 943e
00000260: 80c5 f6bd 0930 8cbc de8e 313e d247 6c3e
00000270: eb6a d43d 7e83 53be a745 1abe d82a cb3e
00000280: cf3b 0cbe df2d 263d 282c a3be a216 d23c
00000290: fb2c 45be fbbb be3d 20e7 a6bd 854d 28bf
000002a0: e40d 13be a6c7 973e fddb 2d3e 2327 35be
000002b0: 825b 04bd e9cc 13be f542 193c 85fb 05bd
000002c0: dbae 803e ca75 69bc b787 0bbe 532f bd3c
000002d0: bd11 d43e c0d9 a7be f96c ac3d e392 b4be
000002e0: c7e2 0dbe 844e 523e f4d5 1abe 256f 4c3d
000002f0: 1a0a f7bd abf1 13be eff6 f53d 942b 76bc
00000300: 48b7 893e a8e2 03be 687e 85bb f940 82be
00000310: e422 793c 1e68 80bf f899 bf3e e0ec 263e
00000320: f823 153e 4d75 60be ba05 203b ca73 e13d
00000330: 97a3 60be 5852 1b3e 8407 193d aecc 373e
00000340: 1ff9 b33e 75fc c53e 37fb 6abe 50c8 883c
00000350: b8be 833e 402d 143d 05de 0a3e ceaa 103e
00000360: c580 a7be 35ef 063b 826d c5bc 524b 20be
00000370: 2cc8 36bd 9882 a0bc 0a1d 253e 0d67 b2bb
00000380: 0888 b4be acea d53e 6f32 4ebe a253 843c
00000390: 8444 b4be fe1a b13c 0cba 833e d280 d83e
000003a0: 50a7 6ebe 5d7e a9be 1f09 54be 0836 823c
000003b0: a5fe 7b3e 8e05 9bbe 9ec1 f03c a4f7 9e3e
000003c0: 5f49 f03c 95f4 cd3d 6364 3f3b def7 84be
000003d0: 7c48 6ebd 5834 aebc 2978 a63d 58d6 b9be
000003e0: 733e fc3d cb9f a5bd 812b 81bd 0486 d83d
000003f0: 78cc a0be 5434 08be 4736 e5bd 406f a4bd
-0.6115774 0.18218853 0.18155925 0.039373532 -0.16645595 0.17973033 0.08052471 0.0020779052
-0.07878952 -0.21654616 -0.07973923 0.1255517 -0.016144183 0.3541935 0.05116233 -0.22072479
-0.20616113 -0.19347252 0.26669073 -0.23423119 -0.049142115 0.1250798 0.09104022 -0.22627695
0.017449744 -0.35778672 -0.2198541 0.15112773 -0.021056278 -0.02165289 -0.09846816 -0.0064538643
0.9811248 0.4160512 0.64133817 0.22735795 -0.43157497 0.36151823 -0.12370955 -0.3640264
-0.032065183 0.01953891 -0.09175485 -0.024359467 -0.1676079 -0.053854022 0.014864981 0.03589868
0.32840693 -0.34942502 -0.024583483 -0.09773375 -0.04595273 -0.37224698 -0.0395255 -0.00051280693
0.33367485 0.17879708 0.41626692 -0.048293754 0.018273545 -0.01774909 0.034426894 -0.016792336
-0.012809314 -0.23882167 -0.0649233 -0.11640665 -0.25654998 -0.33471444 0.15597595 0.2717192
0.0982761 0.09494928 -0.47672588 0.09752026 -0.02231518 -0.05460173 -0.366658 -0.05395234
0.13073634 0.14466394 -0.18087511 0.15948552 0.076994285 -0.11006788 0.122580335 0.15279314
0.27785215 0.5372788 -0.11551053 -0.04725438 -0.15078248 0.186077 -0.08356001 0.008391112
-0.250267 0.023644704 0.1026347 0.038908325 0.3183385 -0.31736955 -0.117015846 -0.052097194
-0.04815395 -0.5407361 -0.0454379 -0.27510718 0.14831997 -0.049775824 0.16736206 -0.23800282
-0.3980167 -0.048772298 -0.22090638 -0.5270769 -0.039325412 -0.013198811 -0.4645718 -0.15558422
-0.18899296 -0.002607401 0.22451784 -0.09935194 -0.36735028 0.22668165 0.23548429 0.08856071
-0.049249697 -0.17896463 -0.038453948 -0.15786783 -0.0025262802 0.05726284 -0.27506837 -0.22864974
0.26939702 0.14636384 -0.44320318 0.04884263 0.1114463 0.21781242 0.19860145 -0.16607508
0.12342112 0.11529906 0.29133403 0.34149677 0.3676553 -0.073539175 -0.084137365 0.28988594
-0.12049389 -0.017112749 0.17339656 0.23074272 0.103719555 -0.20655629 -0.15065633 0.39681125
-0.1369469 0.04057109 -0.31869626 0.025645558 -0.1925544 0.09313198 -0.08149552 -0.65743285
-0.14360768 0.29644507 0.1697845 -0.1769071 -0.03231383 -0.14433636 0.009354343 -0.03271057
0.25133404 -0.0142492745 -0.1362599 0.023093855 0.41419783 -0.32783318 0.084192224 -0.35268316
-0.1385604 0.20537764 -0.15120679 0.049910683 -0.120624736 -0.14447658 0.120099895 -0.015025038
0.26897645 -0.12879431 -0.0040739067 -0.25440195 0.0152060725 -1.0031774 0.37422156 0.16301298
0.14564502 -0.21919747 0.0024417476 0.11008413 -0.21937405 0.1516813 0.037360683 0.17949173
0.35151002 0.38669172 -0.22947393 0.016697079 0.25731444 0.036175966 0.13561256 0.14127657
-0.3271543 0.0020589356 -0.024100069 -0.15653732 -0.044624493 -0.019593522 0.16124359 -0.0054444135
-0.35260034 0.41780603 -0.20136426 0.01615316 -0.35208523 0.021619316 0.2572788 0.42285782
-0.23306012 -0.3310422 -0.20706604 0.015894905 0.24608858 -0.30277675 0.029389199 0.3104831
0.029331861 0.10056416 0.0029204122 -0.25970358 -0.058174595 -0.021265194 0.081283875 -0.36296344
0.12316599 -0.08087119 -0.06307126 0.105724365 -0.31405997 -0.13301212 -0.11191993 -0.08029032

fc1.bias f4 [400]
00000000: ab5d 99bd 7ff4 2fbe 35e2 babe 273e 76be
00000010: c8e6 c9be ce0f abbe c085 b4be dddb be3c
00000020: ac29 86be 8b9d 5abe 7980 fdbe 41a6 ccbd
00000030: 6edb a3be e894 70be ca88 2bbe f66b b5be
00000040: 708c a73d a116 ccbd 1fbe 463e d8bd 02bf
00000050: 3dd1 97be 5ee2 d5bb 1d83 01bf 93c9 2fbc
00000060: 4137 90be a9f9 96be 2e90 a33c 0b83 4abe
00000070: e33d 90be 5d3f 88be 8701 98bd d621 47bd
00000080: 552d 523e f74a 46be e0b3 82be 7c0a b4be
00000090: 018f 58be 95a0 d0be 27b4 10bf cf4d 30be
000000a0: c2d1 3bbe 0fa9 80be 7b1d 2abe cbe7 ecbe
000000b0: 3552 82be edd3 01bf aa20 8cbe c08a 4a3d
000000c0: c8e1 ac3d d20c 32be ea82 9ebe b089 50be
000000d0: 518f 11bf dd67 7dbd a2af 09bf fc21 48be
000000e0: b19d 023e f15b b5be 6a0d 003e d18b dbbe
000000f0: 05f8 6ebe a01e 7abe 685e e8bd e0db debe
00000100: 88ae 9abe 6bf2 e23b a5c9 e5be 35b5 c7be
00000110: 6dec 35be ae2a b2be 8d99 8abe 4e81 ddbe
00000120: d945 69be f553 99be 731d 7fbe caa6 b0be
00000130: c7ee b7be 908f 88be 449d bfbe 7c7f 60be
00000140: 0c82 a1bd d77d 42bd ab04 82be 1d84 39bd
00000150: 6d4d d0be 0bea 66be f526 5dbe eebe 2b3b
00000160: 8eb9 ecbe 99cd 64be 3439 49be 5769 04be
00000170: ac62 adbe 8268 083e 325a e0bd 9012 ccbe
00000180: d6c6 eebc cf71 043e 1b67 44be 92ef 8d3d
00000190: 8eb3 dcbe 159a 44be ce53 72be e091 cfbb
000001a0: 2967 6d3c baee a9bd 7e2d 8ebe 295c e4be
000001b0: 094c 11be 2b3d e8bd c6ca dfbe c858 a0be
000001c0: b050 24be ae1a 82be 29a9 ddbe 33f9 8cbe
000001d0: 8df7 5bbe c38b 98be 885d 66be 37c1 cfbe
000001e0: a303 5abe 23e3 71be a3b3 c8bd 40be fcbd
000001f0: dec1 35be b6d4 47be 0d0f 0abf 3f4a a3be
00000200: 72ea 5f3b 32fd 38be 5a4c a1be 732a babe
00000210: c8c5 7fbe 0438 9dbe 24c5 9abe 2e5f 97be
00000220: f97f c9bb 95a1 9fbe 3833 c2be 22a3 8ebe
00000230: 0894 f1be 1343 14bd 9e73 a3be 3918 3abe
00000240: 9117 85be f300 0b3e 7065 4abe 7f10 ccbe
00000250: 1659 d4be 7845 88be c15b 67be c177 72be
00000260: ae0d 26be 0375 003e bf55 b03d bbd3 b0be
00000270: 547b 5bbe be8c 6e3c ff9f 22be 1324 cbbe
00000280: 884b 53be d5d8 b7be c539 81be 8b17 cc3d
00000290: b7c3 e0be b2c8 94be 7200 b1bd 52d5 afbe
000002a0: 89e1 62be 13a5 98bd d17f 183e 5308 11be
000002b0: 5ebb b5be 14ae 353d 8eac f1be ad91 a1be
000002c0: 3162 b7be bf10 8abe 584a 80be 05b9 b0be
000002d0: 15c1 8ebe 5ef9 06bf 4ca9 b8be 2e64 f6bc
000002e0: d426 9bbd 3f63 96be fe44 00bf 59e6 50be
000002f0: e033 cd3c ede4 c3bd 201f 28be badf 22be
00000300: fcef f8be a727 b8bd 3f9d 49be 7bd9 b9be
00000310: 8eec 42be 0b32 98bd feb1 43bd f153 68be
00000320: 8d44 a1be 5bfc 44be 90f8 b2bd 49b6 71be
00000330: 03a6 90be 9210 5dbd 34cb cabe be10 39bd
00000340: d196 943b a280 bdbd b660 9cbd 3bfc b9bd
00000350: 1aca c73c 98d5 aabe ff70 09be 5786 893d
00000360: 2814 01be a9ef 7fbe 7f20 ebbd b11e 01be
00000370: daea cc3a bc1b 0dbe 46de f1be 23c1 c5bd
00000380: a093 9e3d 0d47 e8bd 6297 b7be e9eb 14bf
00000390: 7366 abbe a89c 58be 4a5e 6e3d 1b77 a7be
000003a0: f6c2 b4be c1d8 36bd cf05 b8be d759 b23d
000003b0: 3f86 0abf ff4c 90be 9c39 cf3d 3019 9ebe
000003c0: 4a6f 33be e149 61be 654b 87be fc6a 9fbe
000003d0: dfbe babe e409 eebe 0bd7 95be b29d 3cbe
000003e0: 564e d9be 272f 88be abc1 c2be c672 8fbe
000003f0: 9d19 973c d322 c9be 3211 fdbe 7a23 59bd
-0.07488569 -0.17183112 -0.36500707 -0.24047147 -0.39433885 -0.33410496 -0.35258293 0.023298198
-0.26203668 -0.2134916 -0.4951208 -0.09992648 -0.3200335 -0.23494303 -0.167514 -0.3543393
0.08181083 -0.099652536 0.19408463 -0.5107093 -0.29651824 -0.006527229 -0.5059069 -0.010729211
-0.28167155 -0.2948735 0.019966211 -0.19776551 -0.28172216 -0.26610842 -0.07422166 -0.048616253
0.20525105 -0.19364534 -0.2552786 -0.3516425 -0.21148302 -0.40747514 -0.5652489 -0.17217182
-0.18341735 -0.2512898 -0.16612808 -0.46270594 -0.25453344 -0.50714 -0.2736867 0.04944873
0.08441502 -0.17387703 -0.30959255 -0.20365024 -0.5685931 -0.06186663 -0.5378362 -0.19544214
0.12755467 -0.35421708 0.12505117 -0.4288011 -0.233368 -0.24425745 -0.113461316 -0.43527126
-0.30211282 0.006925871 -0.44880405 -0.39005437 -0.1776597 -0.34798187 -0.27070275 -0.43262714
-0.22780551 -0.29946867 -0.24913578 -0.3450225 -0.3592436 -0.2667203 -0.37424672 -0.21923631
-0.078861326 -0.04748329 -0.25394186 -0.04529201 -0.4068407 -0.22550218 -0.21596892 0.0026206332
-0.46235317 -0.22344054 -0.19650728 -0.12930809 -0.33864343 0.13321117 -0.109547034 -0.39857912
-0.029147547 0.1293404 -0.19179957 0.0693046 -0.4310574 -0.19199403 -0.23664781 -0.0063345283
0.014489927 -0.082974866 -0.27769083 -0.44601563 -0.14189161 -0.11339792 -0.4370939 -0.31317735
-0.16046405 -0.2541098 -0.4329312 -0.27533874 -0.21481152 -0.2979413 -0.22496617 -0.405771
-0.2129045 -0.23621802 -0.09799888 -0.12340975 -0.17749736 -0.19514737 -0.53929216 -0.31892583
0.003416684 -0.18065336 -0.31503564 -0.3636051 -0.24977791 -0.307068 -0.3022853 -0.29564804
-0.0061492887 -0.31177965 -0.37929702 -0.27858835 -0.4718325 -0.03619678 -0.31924146 -0.18173303
-0.25994542 0.13574581 -0.19765258 -0.39856336 -0.41474217 -0.266155 -0.22593595 -0.23678495
-0.16216156 0.12544636 0.08610105 -0.34536538 -0.21433765 0.014559923 -0.15881346 -0.3967596
-0.20634282 -0.35907617 -0.25239387 0.09965428 -0.4389932 -0.29059368 -0.08642663 -0.34342438
-0.22156347 -0.074533604 0.14892508 -0.14163332 -0.35494512 0.044355467 -0.4720196 -0.31556454
-0.35817102 -0.269659 -0.2505672 -0.3451616 -0.27881685 -0.52724254 -0.36066663 -0.030077066
-0.07575765 -0.29372594 -0.50105274 -0.2040037 0.02504915 -0.095651485 -0.16418123 -0.15905657
-0.48620594 -0.08991938 -0.19688891 -0.36298737 -0.19035551 -0.0743142 -0.04777717 -0.22688271
-0.31497613 -0.19236891 -0.08738816 -0.23604693 -0.28251657 -0.05397088 -0.39608157 -0.045181982
0.0045345803 -0.092530504 -0.07635634 -0.09081312 0.024388362 -0.33366084 -0.13422011 0.067150764
-0.12605345 -0.24993767 -0.114808075 -0.12609364 0.0015633956 -0.13780111 -0.47239894 -0.096559785
0.07743001 -0.11341677 -0.35857683 -0.5817247 -0.334766 -0.2115351 0.05819539 -0.32708058
-0.35304993 -0.044640306 -0.35941932 0.08708542 -0.54111093 -0.28183743 0.1011841 -0.30878592
-0.17522922 -0.22000839 -0.2642471 -0.3113631 -0.36473748 -0.4649192 -0.29265627 -0.18419531
-0.42442578 -0.26598474 -0.38038382 -0.28017253 0.01844483 -0.3928438 -0.4942718 -0.05301235

fc2.weight f4 [300, 400]
00000000: 9311 643d 4161 b2be 336e 383e c76a 47bf
00000010: dc14 313e ab5e 6ebe 513c 0b3b 89c7 6c3e
00000020: 4466 e2bd 8f98 85bd 183f 1c3e 4906 6b3e
00000030: 7b7a 5bbc 72ac ccbc 2ff1 093e 0032 fdbd
00000040: 6411 44be 1b08 fdbc ac29 d0be 98fd 9a3e
00000050: 3e4a f93d a988 cc3e 5afc 36be c163 c3be
00000060: 2f60 2cbd 5c2c 963e 5e61 8ebd 0b59 33bf
00000070: dbf5 adbe ea60 e4be 74c1 e23d 56d1 97be
00000080: 1204 b83c 42b2 c33d ca91 a6be db89 25bd
00000090: e180 26be e44e 09be e8ec 89be 314c 15bf
000000a0: 7e08 a23e 6492 6abe d334 253e 80ba 223e
000000b0: d288 80be 60cf 03bf 686e 97bc 7722 0ebd
000000c0: a806 253e 71fd 5bbd 57ca 1abe 7a20 653d
000000d0: 8673 b83e 7147 193e 9f4f b9be 64fb 493e
000000e0: 116a b5bd 7ff7 95bd 1078 edbe 462d e8bd
000000f0: 0097 aabe 5d22 263e 7b5d 88be 3e1b 03bd
00000100: b959 2dbd 2707 d13d ade5 cc3c 1eea 5a3e
00000110: 38c7 40be c1dd 153e b4a5 35be e175 79bd
00000120: 1465 053e 07ac 3bbf ab22 efbd c39e b13e
00000130: 630f 2abe e74a 303d d4d8 39bd b1a4 133e
00000140: 184e debd a9ab 6abd 694f 25be 1dc5 a8be
00000150: 0320 843e 5c47 9a3e 81ba a83e 6a0e f3be
00000160: 3beb 0f3e f6ec e53d 9274 723d 4f56 e0bd
00000170: 19de be3e 2228 12be 2e02 2abd 4bf2 f53d
00000180: 7f82 e13e 287c 4e3e bba8 933d 8df6 d8be
00000190: 869e 363e feb7 31bd dbd1 c1be 575a 603e
000001a0: 6279 15be d66c f5bd 1122 dcbe cadc 43be
000001b0: 4715 ab3d 75b5 17bf c187 41be 31ae ddbe
000001c0: c230 8fbe 36b2 943d 09f3 033c 1dd1 793e
000001d0: aef8 05be 68ce 26be c021 1a3d c44d 803e
000001e0: a7c6 0f3d 89f0 343e 4f6a bcbe 4e69 7a3c
000001f0: ef0b 363d ed12 debd db53 0dbe 0572 0abd
00000200: c81c 9f3e b45d a2be 5416 183e eb82 6f3d
00000210: 56d5 3cbe 7a3d d43d 8902 813e a7e5 f3be
00000220: 02c7 bbbc ee80 0ebe 1d91 f13d 2ffe 87bd
00000230: 37b0 75be bc8d 12be 7067 92be 0b2f 08be
00000240: 8328 b2bd 920f 833e d151 21bf 7c3e 37be
00000250: be82 643d 58fe cabe fc14 103e 79e3 113e
00000260: ad55 17bd dcb7 febe cf6c dcbe ebde 16be
00000270: 14db 68be b689 bc3d bab5 893e f30b 333e
00000280: 453d 983d 5970 4fbc 746b 4abd 8ad8 a9be
00000290: 6532 f93d e39d 4abe 26e9 56bc 906f d53b
000002a0: 5dd4 b7bd 2d29 f63d 3cb1 5c3e 553a 753d
000002b0: 2f94 913d ef32 313e b75c 3f3c 7e60 8ebc
000002c0: 62d6 8c3e c6fd 893e 8495 633e 50da 6bbd
000002d0: b8bc 22bf c1d1 82be 4dc7 b7be fa2b 303d
000002e0: 7fc6 d5bd 7925 4f3e a2bc d6bc 098e fbbe
000002f0: 982f 35be 1852 7fbe 10a2 37be d3e9 da3c
00000300: 0707 a4be dc80 20be 4505 b3be e4c7 b13e
00000310: 346e 263e 6bb9 58be ca92 4e3d 597a 8dbe
00000320: 07ea 683d 17a7 f9bd 14bc dcbe dd92 383c
00000330: 20c4 babc 2301 eabd 61f4 00bf 2ab6 52bf
00000340: 34d1 923e 988b 843d f917 bb3e dc8d e73c
00000350: 9738 a43e 8713 b5bd 055a 583e d532 a73e
00000360: 78e6 8d3e af76 f7be e49d c3bb 15c3 063c
00000370: ed12 acbe 0c81 cd3d 2510 19bd fc9a 62be
00000380: a409 8e3d 8847 783e 3d23 07be ef98 eabe
00000390: 2e5b 9e3e 9948 4dbd 87ba 0fbf dda1 be3d
000003a0: f961 093d 8825 cebe 53b5 d23e cbbd f23d
000003b0: 4f2d 19be f16f 14be 53c2 8cbe 9a9f 863e
000003c0: 8de6 6bbe e3b6 d3bc 10be e63d a53f e03d
000003d0: f60b 19be db46 bb3c bffb afbd da1f 1b3c
000003e0: a6e4 f3be c495 1abf f661 583e ab6e 3ebd
000003f0: 43fc 4f3c 790e bbbd 9a30 d5be 1c61 dbbe
0.055680823 -0.34839824 0.18010788 -0.77897304 0.17293113 -0.232783 0.0021245668 0.23122992
-0.11054662 -0.06523239 0.15258443 0.22951616 -0.013395901 -0.024984572 0.1347091 -0.12363052
-0.19147259 -0.030887654 -0.40656793 0.30271602 0.12172364 0.39948013 -0.17869702 -0.38162044
-0.042083915 0.2933072 -0.06952165 -0.70057744 -0.33976635 -0.4460519 0.110720545 -0.29651898
0.022462878 0.09555484 -0.32533103 -0.040414672 -0.16260101 -0.13409 -0.26938558 -0.58319384
0.31647104 -0.22907406 0.16133432 0.15891457 -0.25104386 -0.51488304 -0.018485263 -0.034700837
0.1611582 -0.053708497 -0.15116249 0.055939175 0.36025637 0.14968659 -0.3619356 0.19724804
-0.08858121 -0.07322597 -0.46380663 -0.1133676 -0.3331833 0.16224046 -0.2663382 -0.032008402
-0.042321894 0.10206442 0.025011862 0.21378371 -0.18825996 0.14635374 -0.17738992 -0.060903434
0.1302684 -0.7330937 -0.11676534 0.34691438 -0.16607432 0.043040182 -0.0453728 0.14418294
-0.10854739 -0.057292614 -0.16143574 -0.32962885 0.25805673 0.30132568 0.3295479 -0.47471935
0.14054577 0.11226837 0.0591932 -0.10953962 0.37278822 -0.14273122 -0.041505985 0.12009104
0.44044873 0.2016455 0.07209917 -0.42375603 0.1783391 -0.04338836 -0.3785542 0.21909462
-0.14597085 -0.119836494 -0.4299474 -0.19127193 0.08353668 -0.59261256 -0.18899442 -0.4329696
-0.27966887 0.072605535 0.00805355 0.24396177 -0.13083145 -0.16289675 0.037629843 0.2505933
0.03510156 0.17669882 -0.36799857 0.015283896 0.044444975 -0.108434536 -0.1380152 -0.033800144
0.31076646 -0.31712115 0.14852268 0.058474462 -0.18440756 0.10363288 0.25197247 -0.47636148
-0.022922043 -0.1391637 0.11795256 -0.066402785 -0.23993002 -0.1431188 -0.28594542 -0.13299195
-0.08699133 0.25597817 -0.63015467 -0.1789493 0.055788748 -0.39647174 0.14070505 0.1424693
-0.03694694 -0.4974965 -0.43051764 -0.14733474 -0.22739822 0.09205954 0.2689646 0.17485027
0.07433561 -0.012661063 -0.04941888 -0.3317302 0.12167815 -0.19786792 -0.01311711 0.0065135434
-0.08976052 0.120195724 0.21551985 0.059870083 0.07108342 0.17304586 0.01167982 -0.017379995
0.2750731 0.26951426 0.22225004 -0.057581246 -0.6356921 -0.25550655 -0.35894242 0.04301069
-0.10438251 0.20229138 -0.026212994 -0.49131802 -0.17693937 -0.2493366 -0.17932916 0.026722824
-0.3203661 -0.15674156 -0.34964958 0.34722817 0.16252977 -0.21164481 0.050432958 -0.27632406
0.05686381 -0.12190073 -0.43112242 0.011265484 -0.022798598 -0.11425998 -0.5037289 -0.8230921
0.28675234 0.06471938 0.36541727 0.028265886 0.32074425 -0.08841615 0.2112809 0.3265597
0.27714896 -0.48332736 -0.0059697498 0.008225222 -0.3360819 0.10034379 -0.037368912 -0.22129434
0.069354326 0.24246037 -0.13197036 -0.45819804 0.3092894 -0.050118063 -0.56143993 0.09308217
0.0335407 -0.4026301 0.41153964 0.118526064 -0.1495869 -0.14495827 -0.27492008 0.2629364
-0.23037167 -0.025844043 0.1126672 0.10949639 -0.14945969 0.022860935 -0.08592939 0.009468043
-0.47635382 -0.60384774 0.21131119 -0.04649226 0.012694421 -0.0913362 -0.41638643 -0.42847526

fc2.bias f4 [300]
00000000: 6e9d b63d d22d 11be 647e 733c 2e01 dc3c
00000010: 2554 b8bd d817 92bd 6ea7 0e3e d01d 893c
00000020: b353 a3be b73a 01be 3521 77bd 895d 203e
00000030: 4a21 d9bb 8339 523d bd2d c13c 2f4c 61be
00000040: 70a0 c5be c261 8abd ce19 a43d 6fd0 dabd
00000050: 7aad c0bd 93a2 a9bd 21d4 453c 2bec 39be
00000060: 1f6d 8fbd 48e3 6abd 28cb 28be aeeb 733e
00000070: 1a1c fcbe f97b e3bd a1bf c03d 971b e73d
00000080: 1b74 c9bc 3055 c53c c990 82bd 7df6 11be
00000090: d076 2639 e4dc 5abd 18d2 63bd 4d86 30be
000000a0: 0d54 90be e4d4 12be c9d0 a6be e83f 43be
000000b0: 26ba 53be 8b00 83be 5fe2 c0bd c816 eabb
000000c0: e839 92bc c61b bcbe b015 47be a0ca aabd
000000d0: 2a99 19bd a100 93bc 4f99 fdbc 9be6 45be
000000e0: aaea b1bd 63cd 9bbd aaf8 53bd b313 993d
000000f0: ec46 843d 0aa1 cfbe 29b0 983c 4f2f 2c3e
00000100: dfa6 d6bc 0712 533d 54a9 8cbe 1fa7 a33e
00000110: d226 8f3d a239 003e 826d c6bd d648 873d
00000120: cbc5 2ebd 7b08 94bd 1693 0a3c 5c93 6cbd
00000130: a3b4 89be 2026 32bd 6d15 efbd d1ea 02bf
00000140: a4f0 2bbd 3afc 3c3e b062 95b9 e97d 233c
00000150: f2b6 68be b4b1 a8bd 09b0 7e3e c269 98bc
00000160: ddf3 b43e 86bf a3bc f699 8b3c 2b9c 503c
00000170: ffc7 abbe eb0d 1cbe 89e9 03bf 6cfb fd3d
00000180: 3cb7 123e 6cad 353e b8b9 1abe fcae 94bd
00000190: dc77 9fbd 1e2c 47be 190b 3abe 7a3e 72be
000001a0: 47af 19be 027e 073d e0e0 aa3c 7e64 91be
000001b0: 9fc8 93be 9db9 023e f958 943d e89a 27bc
000001c0: 7c6b 0cbe 1d65 16be b258 8d3d 1235 05bd
000001d0: 4e7d 8fbd 86fe a63d 2c29 233d bccf 50be
000001e0: c0a0 d63c 7785 863c d9af 07be 21fe 75bc
000001f0: 43f1 f6bc ef69 893d 79fb 953e 4164 edbe
00000200: 13f0 8bbe ece4 babe 7046 e2be 4556 bc3c
00000210: c255 dcbd e06b 3fbd 1038 033e 0d03 eabd
00000220: 0534 04bd 7375 4e3e b2de dfbd 1a30 a0bd
00000230: 80c9 08be 4e9e f63d 99d7 c3bb 3515 b1bd
00000240: 18f3 a0be f51b fe3d 3741 483e a38f 7ebe
00000250: 775a e6bd ab83 303d a143 c6bd 0064 dcbd
00000260: e48d 19bb ef2c e83d 6aa7 70be c9a1 5fbe
00000270: 2728 fbbd b1e0 16be 6f47 94bd 98ce f83c
00000280: 0f76 1b3d a001 b7bd 8128 60bd 4ec8 1bbd
00000290: ebcc 013e 7c41 873e d2cd 03be 8fb9 2fbe
000002a0: 8372 273d 80e4 27bd 782d dbbd ba4a ca3b
000002b0: 7db1 27be 6864 18be d4a2 34be 277e 15bd
000002c0: 3c73 8cbe 2c36 8abe 3925 77bd 7478 053d
000002d0: 1419 5fbe 020c cebb 8c89 903e 56a8 95be
000002e0: 036d 5abd 0e9a 4bbc 22a2 5dbe dca8 edbc
000002f0: 2527 d03d e106 97bd e7f0 f2bd 7345 13bd
00000300: 501f 973c 1ff2 473d 117e 8cbe d9c4 d33c
00000310: a3ac ae3c 2195 5bbc d2ee 903d 88c6 38be
00000320: 6000 2cbe a0c6 a2be 6ff1 963c d111 303e
00000330: 3428 4a3e b289 06bc 5a8e 653c f653 2cbc
00000340: a64f ba3c 7a6d 97be 9707 46be ceff 96bd
00000350: c8ea c1be 60fc 95bc da14 28bd 14fd 73be
00000360: 3960 b2be 07d5 68be de56 6abd 624c bd3e
00000370: b3a6 f5bd 0479 a13b 17ea 0bbf 809e 4e3e
00000380: 6049 64bd b203 57be 47cf 00be f522 80be
00000390: 190c e3bc 08be 85bd 69f9 8d3d 2082 fe3d
000003a0: 5b23 003e 4755 bbbb 1e94 7c3d 77c3 3b3b
000003b0: 1acb 74be 1eaf 5bbc df72 30be b77a 10be
000003c0: 4504 3abe bbc9 52be 90d8 f2bc 0b9c 5bbd
000003d0: df0f e4bc 912c cfbd 92c8 6a3d 7e9f 9d3d
000003e0: 7476 04be b126 2ebe 8b8e 1bbe f3d1 203d
000003f0: eec4 60be 2319 21bb f69f b2be 80ae bbbd
0.08916746 -0.14177635 0.014861677 0.026856031 -0.09000424 -0.07133454 0.13931057 0.016737849
-0.31899795 -0.12620054 -0.060334403 0.15660681 -0.006626283 0.05132438 0.02358138 -0.22001718
-0.38598967 -0.06756927 0.08012734 -0.10684287 -0.09408088 -0.08282962 0.012074501 -0.18156497
-0.07003235 -0.05734566 -0.16483748 0.23820373 -0.4924019 -0.1110763 0.0941155 0.11284559
-0.024591496 0.024088472 -0.06375272 -0.14254184 0.00015875255 -0.053433314 -0.055620283 -0.17238732
-0.28189126 -0.14339024 -0.32581165 -0.19067347 -0.20676479 -0.25586352 -0.09418177 -0.007143829
-0.017849877 -0.3673994 -0.19441867 -0.08339429 -0.037499584 -0.017944636 -0.030956892 -0.1932625
-0.08687337 -0.07607534 -0.051750816 0.074744605 0.0645884 -0.4055255 0.018638687 0.16814922
-0.026202617 0.051530864 -0.27472937 0.3196344 0.06989826 0.12521985 -0.09688856 0.06605689
-0.0426691 -0.0722818 0.00845792 -0.05775772 -0.26895627 -0.04349339 -0.116740085 -0.5113955
-0.04197754 0.18455592 -0.00028493023 0.00997875 -0.22726038 -0.08237019 0.2487184 -0.018605117
0.35342303 -0.019988786 0.017041188 0.012732546 -0.33551022 -0.15239684 -0.5152822 0.124014705
0.14327711 0.17741936 -0.15109909 -0.07259938 -0.07786533 -0.19450423 -0.18168296 -0.23656645
-0.15008269 0.033079155 0.020859182 -0.28396982 -0.28864 0.12766118 0.07243533 -0.010229804
-0.13712877 -0.14687009 0.06901683 -0.032521315 -0.07006322 0.08154015 0.039834186 -0.20391744
0.026199698 0.016421063 -0.13250674 -0.015014202 -0.03014434 0.06709658 0.2929342 -0.4636555
-0.273316 -0.3650278 -0.44194365 0.022990355 -0.107585445 -0.046733737 0.12814355 -0.11426363
-0.032276172 0.20161991 -0.10931148 -0.07821675 -0.13358116 0.12041913 -0.005976629 -0.08646623
-0.31435466 0.12407676 0.19556127 -0.2485948 -0.112477235 0.04309432 -0.09680868 -0.10761261
-0.002343052 0.113366954 -0.23501363 -0.2183906 -0.12263518 -0.1473415 -0.072401874 0.03037195
0.037954386 -0.08935857 -0.054726128 -0.038032822 0.12675826 0.26417148 -0.12871483 -0.17160629
0.04088069 -0.0409894 -0.10702032 0.006173459 -0.163763 -0.14882052 -0.17640239 -0.03649726
-0.27431667 -0.26994455 -0.060338233 0.032585576 -0.2178691 -0.0062880525 0.2822994 -0.29229993
-0.053326618 -0.012426866 -0.2164388 -0.029011182 0.10163716 -0.07374359 -0.11862355 -0.035954904
0.018447548 0.04881489 -0.2743993 0.0258507 0.021322554 -0.013402254 0.07076801 -0.18044484
-0.16797018 -0.31792164 0.018425671 0.17194296 0.19741899 -0.00821154 0.01401099 -0.010518065
0.022743057 -0.2957571 -0.19338833 -0.073730096 -0.37874436 -0.018308818 -0.04103551 -0.2382701
-0.34839037 -0.22737513 -0.05721175 0.36972338 -0.11994686 0.0049277563 -0.5465407 0.2017765
-0.05573404 -0.20997503 -0.1257907 -0.2502667 -0.02771573 -0.06530386 0.06932337 0.12427163
0.12513487 -0.005716953 0.061664693 0.0028650442 -0.23905602 -0.01340845 -0.1723132 -0.14109312
-0.18165691 -0.20584767 -0.02964428 -0.05361561 -0.0278396 -0.10115922 0.057320185 0.07696436
-0.12935811 -0.17006947 -0.15191095 0.039262723 -0.21950123 -0.0024581633 -0.34887666 -0.091641426

fc3.weight f4 [4, 300]
00000000: 46bc af3d 04cc 0ebf d3f9 57bf 4ae7 ad3e
00000010: bc59 6ebf 7a16 503e 3f00 d63e 0a52 01bf
00000020: d240 36bf a6d1 dcbe 32bc c1bb 18ac fa3e
00000030: 519f 263c 2a9b a3bf d12e 14be e2f2 cc3d
00000040: 0101 633f 9e03 c13e e023 af3e bec5 53be
00000050: 8398 1c3e bce5 563f 7820 2ebe fddf 863f
00000060: 4a87 66bd 07db 58bd 3a09 863f 7c8c 51bf
00000070: 1965 863c d6ff 6f3e eb3f 5c3f 58e2 583f
00000080: d326 3cbe dd41 2cbf ca44 ff3e de97 423f
00000090: be22 9b3e e9d7 19bf ff97 06bc 0fe7 aabe
000000a0: 741a 943d 60df 173e eaa6 bdbe 4ada 813c
000000b0: e5a7 dcbe ff8b 95bc a448 4d3f 8f0a 9e3e
000000c0: 28c8 bb3e 8661 a43e 576a 883e 5c78 713e
000000d0: c1d0 8f3e ed92 733c 13a5 24bf 3699 e5be
000000e0: ff59 c8be cd45 e13e 0ec5 42bd 425d 08bf
000000f0: 389f c83f 5d02 663f 06b4 aabc b26b 04bf
00000100: 7167 4c3e 5b99 a63e ddd8 01be ac2c 72bf
00000110: 9973 503d 49de 22be 1177 153c f9ec 95bd
00000120: bf8b fd3e 87e2 27b9 c2a3 e4ba a97d 633e
00000130: 5ac6 a53d 9dda 9ebc 290c 21bf e8e2 edbd
00000140: 9c08 c53c 6a26 3f3e 20ac 13bf a73c 173f
00000150: 3659 10bf 5558 8b3e 8a6b 07bf a58d a63c
00000160: 20eb bb3f fa33 6cbf 94c6 8e3f ba64 a1be
00000170: 38ff 2cbe 380a 02bf c549 e83e 575d 7d3f
00000180: a1e4 873f da19 33bf 234c e23e 3262 223d
00000190: 5196 443f a05b 30bf fd1b b13e 5adc 963e
000001a0: a7e5 283e 03f6 0e3e f60d c03d fd93 eabd
000001b0: 5bcf 24bd 9e86 7c3e cded 7b3d a5ee ba3c
000001c0: 5afb 9e3e d4a8 473e 5606 56bf 3297 843d
000001d0: 064f 7bbe 4623 21bd 39c6 cbbc df9f 62bd
000001e0: 8313 c1be a3ac 29bf 8590 53be fbdc a2be
000001f0: 6c52 89be 5b80 2f3e f9c4 4c3f eef2 a4be
00000200: 1ca2 96be b454 223f 2474 233e 257d 49bf
00000210: b9f4 323d 3384 91bf 6fce 393f 1580 183f
00000220: 107a 293e 96b1 c3be e3be a1bf 9880 a8bc
00000230: cbbf b8be 65d1 08be 1af7 683a 95cf 24be
00000240: 1a21 e73d c54e b03e 9407 31bc 4a90 053f
00000250: 6197 233f 3fdd 743e 024c 9ebf f7ac d83e
00000260: 7cc9 debe eda5 66bf 37e3 953e 5a00 4a3f
00000270: da3f 463e 9f88 913b 48c8 023d c800 a53e
00000280: 5e93 0b3f 9d65 2f3f 5794 233b fa97 5c3f
00000290: f7b3 16bf 00b5 cb3f d34a 2a3f 3b81 53bf
000002a0: 781a 12bf f855 5cbe 5955 c63d 0915 a8bc
000002b0: 3816 253d b31b cdbd f9d3 6fbf d222 b0be
000002c0: 2dbf 883e fd1a c33d 1c9c 23bc e673 263e
000002d0: 90ae b93e bc26 843e 4118 69bf 50ae 40bf
000002e0: 58f5 c83d 4a83 f8bb 9e19 a53e 4f9c c1bb
000002f0: 8a25 ddbd a75a 5e3d 32bb 313e 4b89 4bbc
00000300: 5f02 00bf 427b d6bd 4aa6 c8be efea 07bf
00000310: 40f3 f4be 84ab 633f 54ce 4e3f 9680 a3be
00000320: 942c 083f e4d4 a5be 2950 36bf 5858 533d
00000330: dbe4 ecbe 9338 2c3d ecd5 743e 6084 c6be
00000340: 5c2b 43bc 70e5 3abf 9c8b 59bd d5db 98be
00000350: 6ad6 433f 620a 703d 4fc8 07bc 2826 073f
00000360: d773 353e 675b 683e 8f56 263d dd27 0040
00000370: 00d8 eb3e 9fb3 1bbf b713 48be f52c 3fbf
00000380: 7ded 7dbb 3579 e5be 2075 09bf 89fc 3d3e
00000390: 9f4c 5cbb 1821 323f a757 acba 4194 053e
000003a0: 36a1 793e 28e6 5e3d 48a6 d6be 672f 2abf
000003b0: 7ea7 3c3f 91b8 a43c 5f25 993c 8ff1 4fbe
000003c0: dbda f6bb 2d7c 13be d253 133d 422b 283c
000003d0: e48b 4cbe 0865 993e 37f0 e33d 5779 99bf
000003e0: baef c1be fa35 333f db78 133f c297 2c3e
000003f0: 411d c7be 51a3 713c cff2 1abe 1927 11be
0.08580832 -0.55780053 -0.84365577 0.33965522 -0.93105674 0.20321074 0.41797063 -0.50515807
-0.7119266 -0.431287 -0.005912327 0.48959422 0.01016982 -1.2781727 -0.14470984 0.10007264
0.88673407 0.37698072 0.34207058 -0.20680901 0.15292554 0.83944297 -0.17004573 1.0537106
-0.056281365 -0.052943256 1.0471566 -0.8185499 0.016405629 0.23437437 0.8603503 0.84720373
-0.18374185 -0.67288 0.4985717 0.7601298 0.30299944 -0.6009508 -0.00821495 -0.3337941
0.07231608 0.14831305 -0.37041408 0.015851159 -0.43096843 -0.018255232 0.80188966 0.3086743
0.36676145 0.32105654 0.2664363 0.2358107 0.28088954 0.014866573 -0.64314383 -0.44843453
-0.39131162 0.43998566 -0.047551207 -0.532673 1.567359 0.89847356 -0.020837795 -0.5172683
0.19961335 0.32538876 -0.12680383 -0.94599414 0.050891493 -0.15905108 0.009122626 -0.073205896
0.4952068 -0.00016010749 -0.0017443823 0.22215904 0.08094473 -0.019391352 -0.6290918 -0.116155446
0.024051957 0.18666998 -0.57684517 0.59076923 -0.56386125 0.2721583 -0.52898467 0.020331213
1.468113 -0.9226681 1.1154351 -0.3152216 -0.16894233 -0.5079684 0.45368782 0.9897055
1.0616647 -0.6996132 0.44198713 0.039644428 0.76791865 -0.6888981 0.34591666 0.2946499
0.16493855 0.13961034 0.09377663 -0.11454008 -0.040236812 0.24660727 0.06150608 0.022818873
0.3105114 0.19497997 -0.8360342 0.06474151 -0.24541864 -0.03934028 -0.024874793 -0.055328246
-0.377102 -0.6627905 -0.20660599 -0.3180922 -0.26820695 0.17138807 0.79988056 -0.3221659
-0.29420555 0.63410497 0.15962273 -0.7870658 0.043690417 -1.1368469 0.7258062 0.5957044
0.1655047 -0.38221425 -1.2636379 -0.02056913 -0.36083826 -0.13361128 0.00088869187 -0.16094811
0.112856105 0.34435096 -0.010805029 0.5217329 0.6390286 0.23912524 -1.2366946 0.42319462
-0.43513095 -0.9009693 0.29274914 0.78906786 0.19360295 0.0044413353 0.031929284 0.3222716
0.5452174 0.68514425 0.0024960244 0.861694 -0.58868355 1.5914612 0.6652042 -0.82619065
-0.5707164 -0.2151717 0.096842475 -0.020517843 0.040304393 -0.10015049 -0.9368282 -0.34401566
0.26708356 0.09526632 -0.00998595 0.16255149 0.36265993 0.25810802 -0.91052634 -0.7526598
0.098124206 -0.0075840103 0.32246107 -0.005908526 -0.10798176 0.05428567 0.17356566 -0.01242287
-0.5000362 -0.10472728 -0.39189368 -0.53092855 -0.47841835 0.8893359 0.8078358 -0.3193404
0.5319302 -0.32388985 -0.71216065 0.051597923 -0.46268353 0.04204614 0.2390973 -0.3877287
-0.011912193 -0.73006344 -0.053111658 -0.2985522 0.76499045 0.05860365 -0.008287503 0.52792597
0.1771997 0.22691117 0.040609892 2.002433 0.46063232 -0.60820955 -0.1953877 -0.74677974
-0.003874629 -0.44819036 -0.53694344 0.18553366 -0.0033615006 0.6958175 -0.0013148681 0.13044836
0.24377903 0.054418713 -0.41923738 -0.6647858 0.7369307 0.02010754 0.018694578 -0.20306991
-0.007533414 -0.14402838 0.03596861 0.01026422 -0.19975239 0.29959893 0.11129802 -1.1990155
-0.3787821 0.70004237 0.57606286 0.16854766 -0.38889506 0.01474841 -0.15131687 -0.14175071

fc3.bias f4 [4]
00000000: 3997 1bbe a470 2c3e 1493 e03b 5ea4 74be
-0.15194406 0.16839844 0.0068534706 -0.23890826
