checkpoint_critic.pth (torch_old, 542634 bytes, 5 tensors)

fcs1.weight f4 [400, 33]
0	0x3ed4641a	0.4148262
1	0x3e11bc2e	0.14231941
2	0xbeb494e0	-0.35269833
3	0x3e7de5d1	0.24794699
4	0x3ea25ba5	0.31710544
5	0x3e3c7112	0.18402508
6	0xbc3281a4	-0.010895167
7	0x3dab3fe5	0.08361796
8	0x3e2305b3	0.15920143
9	0xbe83b4ec	-0.2572397
10	0xbcb28eb6	-0.021796566
11	0x3d07699f	0.033059712
12	0x3e2005fb	0.15627281
13	0xbf430c33	-0.7619049
14	0x3ee2151d	0.44156733
15	0x3e990595	0.2988707
16	0x3eb7c830	0.35894918
17	0x3daa4ab4	0.0831503
18	0x3ea83820	0.3285532
19	0x3dbca949	0.09211976
20	0x3e993dc7	0.29929945
21	0x3dd6078d	0.10450659
22	0x3dd5014f	0.1040064
23	0xbde5b52d	-0.11216197
24	0x3db62a39	0.08894772
25	0x3d311995	0.043237288
26	0x3ea86bee	0.32894844
27	0x3f1565bd	0.58358365
28	0xbebbad51	-0.36655667
29	0xbd2eb528	-0.042653233
30	0xbf2b27bb	-0.668575
31	0xbd4a1d60	-0.04934442
32	0xbfd1fb84	-1.6404881
33	0x3ddecae2	0.108785406
34	0x3b9272c1	0.004469246
35	0xbe971cd6	-0.29514188
36	0xbe2f587b	-0.17123596
37	0x3d65a711	0.05606753
38	0xbea5fc71	-0.3241916
39	0xbe8a75ef	-0.270431
40	0x3e0bf48e	0.13667509
41	0x3af3e7af	0.0018608476
42	0x3df279a7	0.118396096
43	0x3d8b7a66	0.06810455
44	0x3ca6ecf7	0.020376666
45	0x3c82f259	0.015984701
46	0x3e873974	0.2641102
47	0x3d9feb8f	0.07808601
48	0x3e0d21bb	0.13782398
49	0x3e2a01be	0.16602227
50	0x3e62c537	0.22145544
51	0xbd105554	-0.035237625
52	0xbdca0215	-0.09863678
53	0xbddb5eff	-0.107114784
54	0xbdc31382	-0.09525205
55	0xbe2397f9	-0.15975942
56	0x3d154450	0.0364421
57	0xbd68fe60	-0.056883216
58	0x3e37f47c	0.17964357
59	0x3c703197	0.014660261
60	0xbeb5109f	-0.35364243
61	0x3f06049d	0.5235079
62	0xbb975090	-0.004617758
63	0x3eb9703b	0.36218438
64	0x3c85ca12	0.016331706
65	0x3fd6ce28	1.6781664
66	0x3c008d4a	0.007846186
67	0xbead1905	-0.3380815
68	0xbeeb5719	-0.45964888
69	0xbe7176ce	-0.23580477
70	0xbe2039ee	-0.15647098
71	0x3e4e5bb0	0.20152164
72	0x3de50133	0.11181869
73	0xbe3e9cd4	-0.18614513
74	0xbcaf04f5	-0.021364668
75	0xbef88fc2	-0.48547179
76	0x3bde6b83	0.0067877187
77	0x3d0af189	0.033921752
78	0xbca6a712	-0.020343337
79	0x3f05e352	0.5229999
80	0x3f618ee9	0.8810869
81	0x3dc8744e	0.09787808
82	0x3ea823fc	0.32839954
83	0xbe6f251e	-0.23354003
84	0x3e427eb1	0.18993641
85	0x3dac1753	0.08402886
86	0xbd700e12	-0.05860717
87	0xbde3f382	-0.1113043
88	0x3ec157cb	0.37762293
89	0x3dda15bc	0.10648677
90	0xbc36da03	-0.0111603765
91	0x3d3e5816	0.046470724
92	0xbf174ca9	-0.5910135
93	0x3f572cd1	0.8405276
94	0xbdcb0cb1	-0.0991453
95	0xbcb307bd	-0.021854276
96	0xbf4b6d53	-0.7946369
97	0xbc3f2f74	-0.011669029
98	0x3f1a9a33	0.6039154
99	0xbe0d4571	-0.13796021
100	0x3dd63d05	0.10460857
101	0x3ef519d8	0.4787128
102	0xbe4649a7	-0.19364034
103	0x3d32e107	0.043671634
104	0xbef557f0	-0.47918653
105	0x3e2c1491	0.1680472
106	0x3cc7445a	0.024324585
107	0x3dd80020	0.10546899
108	0x3e3b0091	0.18261935
109	0xbd541d32	-0.051785655
110	0x3e203ace	0.15647432
111	0xbd97bafa	-0.0740871
112	0x3ead80a7	0.33887216
113	0x3c51b7f2	0.012800204
114	0xbf04aef0	-0.51829433
115	0xbeed0e23	-0.46299848
116	0x3c0b5a07	0.008505351
117	0x3e940157	0.28907272
118	0xbd278ba3	-0.040904652
119	0x3d400fe1	0.046890143
120	0xbe86fa5d	-0.26362887
121	0x3c875491	0.016519817
122	0x3def17aa	0.116744354
123	0xbd01db0f	-0.03170305
124	0xbe63966e	-0.22225353
125	0xbef56f71	-0.47936586
126	0x3f84cee3	1.0375637
127	0x3dadf302	0.08493616
128	0x3d1b2e5d	0.037886012
129	0xbf8c510b	-1.0962232
130	0xbd1e10c6	-0.038590215
131	0x3ff4c5fb	1.9122919
132	0x3c0cafdc	0.00858685
133	0x3f05ab21	0.52214247
134	0xbee293e1	-0.44253448
135	0xbc838ebc	-0.016059272
136	0x3e7940dc	0.24341148
137	0x3de812da	0.11331721
138	0x3f138812	0.576295
139	0xbe9c4e21	-0.30528358
140	0x3f5971de	0.8493937
141	0xbee2c7e8	-0.4429314
142	0x3de81fed	0.11334214
143	0xbdaf6753	-0.085646294
144	0x3d78df0f	0.0607596
145	0xbe311578	-0.17293346
146	0x3f27e6bc	0.6558645
147	0x3dd28e68	0.10281068
148	0x3e073995	0.1320556
149	0xbc9d292d	-0.019184673
150	0x3df8bbff	0.121452324
151	0x3da55edd	0.08074734
152	0x3e63fa05	0.22263344
153	0x3e10144d	0.14070244
154	0x3d485e14	0.048917845
155	0x3d897c70	0.06713188
156	0x3e1e8f52	0.1548436
157	0x3cb0c485	0.021578083
158	0x3dfc73fe	0.12326811
159	0x3f9c1757	1.2194623
160	0xbdb5b7a4	-0.08872917
161	0x38bc6c00	8.984655e-05
162	0xbf93f311	-1.1558553
163	0x3c2d3c6c	0.010573488
164	0xbf165b8a	-0.5873343
165	0xbd86604b	-0.06561335
166	0x3f05f40b	0.52325505
167	0xbf3510c6	-0.7072872
168	0xbec913c3	-0.3927289
169	0x3ea28d2e	0.31748337
170	0x3df9ead9	0.12202997
171	0xbe15c0b8	-0.14624298
172	0xbf3204a5	-0.69538337
173	0xbe857e96	-0.2607314
174	0xbebd4880	-0.36969376
175	0xbddcb2e1	-0.10776306
176	0xbe23180f	-0.15927146
177	0xbec2c09e	-0.3803758
178	0xbcf3667e	-0.029711958
179	0xbef137c5	-0.4711286
180	0xbdc4b4d8	-0.09604806
181	0x3ebc04ca	0.36722404
182	0xbe166548	-0.14687073
183	0x3e95f859	0.29291037
184	0xbe4a965d	-0.19783922
185	0x3c2a539f	0.010395913
186	0xbdf06b87	-0.11739259
187	0x3ea3db1e	0.3200311
188	0xbc266dae	-0.010157986
189	0xbdfc6f9e	-0.12325977
190	0x3d19721e	0.037462346
191	0x3ddf6208	0.1090737
192	0x3f136b38	0.5758548
193	0x3e8d263e	0.2756824
194	0x3cd068d6	0.025440615
195	0xbf26cb80	-0.65154266
196	0x3d4bc71d	0.049750436
197	0x3e21b0e2	0.15790132
198	0x3da9867d	0.08277605
199	0x3f17cd40	0.5929756
200	0x3ec9bd47	0.3940222
201	0xbea18bfc	-0.31552112
202	0xbd5ab8b2	-0.053398795
203	0x3dd4fa69	0.103993244
204	0x3eab4e8d	0.33458367
205	0x3e881cdf	0.26584527
206	0x3e1c5996	0.1526855
207	0x3e972961	0.29523757
208	0x3e8a10da	0.26965982
209	0x3e6f56c7	0.23372947
210	0x3b6e3f68	0.003635371
211	0xbdaf7062	-0.08566357
212	0x3f79743c	0.97442985
213	0xbef75d35	-0.483133
214	0xbdec83b0	-0.11548555
215	0x3e30eef7	0.17278658
216	0x3ca4be27	0.020110203
217	0x3db9634b	0.09052142
218	0xbda4fd22	-0.08056094
219	0xbdc1b9b0	-0.09459245
220	0x3e304c36	0.17216572
221	0x3d278b28	0.040904194
222	0x3e3d80a6	0.18506107
223	0xbe56975e	-0.2095618
224	0x3e9302fb	0.2871321
225	0x3f658679	0.89658314
226	0x3ea2d740	0.31804848
227	0xbd1540d3	-0.036438774
228	0xbf5d4fff	-0.8645019
229	0xba5e5c00	-0.0008482337
230	0x3fa4b63a	1.2868111
231	0xbd3500a0	-0.04419005
232	0x3ef4440e	0.47708172
233	0x3df54d4e	0.11977635
234	0xbe8d968f	-0.2765393
235	0xbe36a539	-0.17836465
236	0x3e487b67	0.19578324
237	0xbd4658fd	-0.04842471
238	0xbde75069	-0.11294634
239	0xbf2f7a76	-0.68546236
240	0x3e162792	0.14663532
241	0xbe0cb532	-0.13740996
242	0x3ec5d734	0.3864075
243	0xbbd31a49	-0.0064423424
244	0x3eb86a7a	0.36018735
245	0x3f09f641	0.5389138
246	0xbe86acbf	-0.2630367
247	0xbe09fa40	-0.13474369
248	0xbe99e67c	-0.30058658
249	0x3eb7c55e	0.35892767
250	0xbed94d11	-0.4244161
251	0x3ec64eac	0.38731897
252	0xbe187e26	-0.14891872
253	0x3e328ed1	0.17437293
254	0x3e5d09c6	0.2158576
255	0x3e02bb52	0.1276677

fcs1.bias f4 [400]
0	0xbf0c36df	-0.54771227
1	0x3e5cdb2c	0.21567982
2	0xbf41ce0f	-0.75705045
3	0xbf6b6b62	-0.9196073
4	0xbf9098b3	-1.12966
5	0xbf002fee	-0.50073135
6	0xbf5015cf	-0.8128328
7	0xbf9538f7	-1.1658009
8	0xbe1e7521	-0.15474369
9	0xbf8d015c	-1.101604
10	0xbf9c055d	-1.2189137
11	0xbf923c34	-1.1424623
12	0xbeeb57d8	-0.45965457
13	0xbf780d50	-0.96895313
14	0xbf6bfe46	-0.92184865
15	0xbea965cf	-0.33085486
16	0xbf9518c3	-1.1648182
17	0xbf569129	-0.83815247
18	0xbfa72099	-1.3056823
19	0xbf4825c0	-0.781826
20	0xbf969c66	-1.1766479
21	0xbf40db6b	-0.75334805
22	0xbf0d4264	-0.5517943
23	0xbf3d08a9	-0.7384134
24	0xbf94f9bb	-1.1638712
25	0xbf96109d	-1.172382
26	0xbdad8b2c	-0.084738106
27	0xbf2c6d1a	-0.67353976
28	0xbf83403f	-1.0253981
29	0xbf64ba19	-0.8934646
30	0xbebb18e7	-0.36542436
31	0xbf502867	-0.8131165
32	0xbf03ed87	-0.5153431
33	0xbf73a38f	-0.95171446
34	0xbf4dee9c	-0.80442214
35	0xbf810bd1	-1.0081731
36	0xbf6a6ae1	-0.91569334
37	0xbf0c79f8	-0.5487361
38	0xbf7e3fbe	-0.9931601
39	0xbec32549	-0.38114384
40	0xbfa4fd88	-1.2889872
41	0xbf0a4c83	-0.54023
42	0xbf404319	-0.7510238
43	0xbf84e038	-1.0380926
44	0xbf5c9651	-0.86166865
45	0xbf539c4b	-0.8266036
46	0xbf980704	-1.1877141
47	0xbed81004	-0.4219972
48	0xbf922d0d	-1.1419998
49	0xbead6150	-0.33863306
50	0xbf163d06	-0.58686864
51	0x3e8c9ede	0.27464956
52	0xbf6ed8e8	-0.9329972
53	0xbf0346e8	-0.5128007
54	0xbeb86ba6	-0.3601963
55	0xbf9f4e88	-1.2445841
56	0xbf8edf2d	-1.1161858
57	0xbf3727ee	-0.715453
58	0xbf87b2e9	-1.0601474
59	0xbf87047f	-1.0548247
60	0xbf32db6b	-0.69866055
61	0xbf799148	-0.97487307
62	0xbecaf91c	-0.3964318
63	0xbf91e831	-1.1398984
64	0xbf86d4c1	-1.0533677
65	0xbf5d730d	-0.8650368
66	0xbf3bc898	-0.73352957
67	0xbf0b03c8	-0.54302645
68	0xbf2553c4	-0.6458094
69	0xbf800345	-1.0000998
70	0xbfb52ed1	-1.4154912
71	0xbf36575e	-0.7122706
72	0xbf10ac81	-0.5651322
73	0xbfa07710	-1.2536335
74	0xbef5cb2f	-0.4800658
75	0xbf8f3a2a	-1.1189625
76	0xbf808f93	-1.0043815
77	0xbf021e3a	-0.5082737
78	0xbfa9a63d	-1.3253857
79	0xbf9d0617	-1.2267483
80	0xbf03a841	-0.5142861
81	0xbf816ffc	-1.01123
82	0xbf9e5955	-1.2371012
83	0xbf9282c4	-1.1446157
84	0xbf5c0bbb	-0.859554
85	0xbf2b3346	-0.6687511
86	0xbf6f9d92	-0.9359981
87	0xbecf29aa	-0.40461475
88	0xbf9d322a	-1.2280934
89	0xbf4affe7	-0.79296726
90	0xbfa0d045	-1.2563559
91	0xbf689649	-0.90854317
92	0xbfa5ee21	-1.2963296
93	0xbfb8cba3	-1.4437145
94	0xbfa2ff75	-1.2734209
95	0xbf955aa2	-1.1668284
96	0xbee44a58	-0.4458797
97	0xbf96e946	-1.1789939
98	0xbf620fe7	-0.88305515
99	0xbd841219	-0.06448764
100	0x3e21a62c	0.15786046
101	0xbf32996b	-0.6976535
102	0x3ea6062e	0.3242659
103	0xbf73f13e	-0.9528998
104	0xbf8b22c1	-1.0869981
105	0xbf8f6fcc	-1.1205993
106	0xbed80515	-0.42191377
107	0xbf281fac	-0.6567333
108	0xbf77a2bd	-0.96732694
109	0xbf2064bd	-0.62653714
110	0xbf075edb	-0.5287911
111	0xbee75b26	-0.45186728
112	0xbf994cda	-1.1976578
113	0xbeffee22	-0.49986368
114	0xbf73adee	-0.9518727
115	0xbf824414	-1.0177026
116	0xbf8e1886	-1.1101234
117	0xbf81ca62	-1.0139887
118	0xbfbec58f	-1.490404
119	0xbf6332a5	-0.8874915
120	0xbd392a44	-0.045206323
121	0xbedb1e12	-0.4279638
122	0xbf68d8fd	-0.909561
123	0xbf38de45	-0.72214156
124	0xbf84c745	-1.0373312
125	0xbf971947	-1.1804589
126	0xbf8e924e	-1.1138399
127	0xbfb606f7	-1.4220876
128	0xbf8529c0	-1.0403366
129	0xbf794aa7	-0.97379535
130	0xbf419a1f	-0.75625795
131	0xbf14e3e7	-0.5816025
132	0xbefb9abc	-0.4914149
133	0xbf5ab976	-0.8543924
134	0xbf878987	-1.0588845
135	0xbf890307	-1.0704049
136	0xbfa5a8e5	-1.2942168
137	0xbf2003bb	-0.6250569
138	0xbea8f10d	-0.32996407
139	0xbf7498cc	-0.9554565
140	0xbf4e47ac	-0.8057811
141	0xbf293ffd	-0.66113263
142	0xbf7efc39	-0.9960361
143	0xbf2df8be	-0.67957675
144	0xbf4edebf	-0.80808634
145	0xbf519ecf	-0.8188295
146	0xbf594a1d	-0.8487871
147	0xbf2c7875	-0.673713
148	0xbf32460f	-0.6963815
149	0xbebd933a	-0.37026387
150	0xbf4f5a02	-0.80996716
151	0xbf6b172d	-0.9183224
152	0xbf5a61bf	-0.853054
153	0x3eab3dbe	0.33445543
154	0x3c93f2b1	0.01806006
155	0xbf905319	-1.1275359
156	0xbf1d5c8c	-0.6146934
157	0xbf56fe17	-0.8398146
158	0xbf98fe77	-1.1952657
159	0xbf55b4b1	-0.8347884
160	0xbed23cbd	-0.41061965
161	0xbfa9a622	-1.3253825
162	0xbf89e367	-1.0772523
163	0xbf5c5404	-0.860657
164	0xbee3b0ab	-0.44470724
165	0x3d86fccf	0.06591188
166	0xbebe3c4b	-0.37155375
167	0xbeeaab84	-0.4583398
168	0xbf655fd8	-0.8959937
169	0xbf87201b	-1.0556673
170	0xbf99f021	-1.2026407
171	0xbeef43b0	-0.4673133
172	0xbf9aba84	-1.208817
173	0xbf716059	-0.9428764
174	0xbe87a23e	-0.26490968
175	0xbf9ea22f	-1.2393245
176	0xbf8a1218	-1.0786772
177	0xbf02c25f	-0.51077837
178	0xbf76bd24	-0.96382356
179	0xbe9dde63	-0.3083373
180	0xbf8f3acd	-1.118982
181	0xbeeb5fce	-0.4597153
182	0xbf5de78c	-0.8668144
183	0xbee3b447	-0.44473478
184	0xbfaf76b0	-1.3708096
185	0xbf6bce00	-0.92111206
186	0xbfb29d60	-1.3954277
187	0xbee74eed	-0.45177403
188	0xbf1165b1	-0.56795794
189	0xbfb91a80	-1.4461212
190	0xbf3845a0	-0.7198124
191	0xbf79bf2c	-0.9755733
192	0xbf89e608	-1.0773325
193	0xbfae70c5	-1.3628165
194	0xbf812818	-1.0090361
195	0xbef3b89d	-0.47601786
196	0xbf5fbfcd	-0.8740204
197	0x3eb1b7eb	0.3471063
198	0xbf444f0b	-0.7668311
199	0xbf4966ad	-0.78672296
200	0xbf94270c	-1.1574416
201	0xbf985deb	-1.1903661
202	0xbefe4298	-0.49660182
203	0xbf8dd665	-1.1081053
204	0xbf94442c	-1.1583304
205	0xbf4f7ac2	-0.8104669
206	0xbfbf983a	-1.4968331
207	0xbfa7c576	-1.3107135
208	0xbf8158ed	-1.0105263
209	0xbf90cae7	-1.1311921
210	0xbf6777a7	-0.9041695
211	0xbb8b965e	-0.0042598685
212	0xbe92af08	-0.28649163
213	0xbf8517f2	-1.0397933
214	0x3efefe66	0.49803466
215	0xbf5307b7	-0.82433647
216	0xbf53fff7	-0.82812446
217	0xbec28c38	-0.37997603
218	0xbf00bbb4	-0.5028641
219	0xbf8a9dfa	-1.0829461
220	0xbec258a3	-0.3795825
221	0xbf39db6a	-0.72600424
222	0xbf600477	-0.8750681
223	0xbf7ab561	-0.9793301
224	0xbefef72b	-0.4979795
225	0xbf1814cf	-0.5940675
226	0xbfd5b902	-1.6697085
227	0x3ece6b0b	0.40316042
228	0xbf96b399	-1.1773559
229	0xbf1317d8	-0.5745826
230	0xbf9faff3	-1.247557
231	0xbf83abf7	-1.0286855
232	0xbf4efaab	-0.8085124
233	0xbc834c68	-0.016027644
234	0xbf5580c9	-0.83399636
235	0xbfa0aa38	-1.2551947
236	0x3ef669f4	0.4812771
237	0xbf892b87	-1.0716408
238	0xbf8900c9	-1.0703365
239	0xbf914ed7	-1.1352185
240	0xbf915bd5	-1.135615
241	0xbe6e0487	-0.23243915
242	0xbfd5ecb8	-1.6712866
243	0xbf9cea2c	-1.2258964
244	0xbf9381d0	-1.1523991
245	0xbf7e9ca2	-0.9945775
246	0xbf9073e8	-1.1285372
247	0xbf32ae3b	-0.69797105
248	0xbf948b2f	-1.1604975
249	0xbf846627	-1.0343674
250	0xbfbecbb4	-1.4905915
251	0xbf9bb9e7	-1.2166108
252	0xbfb3b2db	-1.4038957
253	0xbfb42a5f	-1.4075431
254	0xbfb1c559	-1.3888351
255	0xbf873cb6	-1.0565403

fc2.weight f4 [300, 404]
0	0xbd237797	-0.03990897
1	0xbc331517	-0.010930321
2	0xbd395efc	-0.0452566
3	0x3c88f8ea	0.016720254
4	0x3d2eb5d1	0.042653862
5	0xbe047c88	-0.1293813
6	0xbd018382	-0.031619556
7	0x3d3c2504	0.04593374
8	0xbc0a746f	-0.0084506115
9	0xbdb4ac18	-0.08821887
10	0xbdee4a6e	-0.1163529
11	0xbd70fe0a	-0.05883602
12	0xbdb0c190	-0.08630669
13	0xbc8ad8f7	-0.01694916
14	0xbd424914	-0.047432974
15	0xbc6d2268	-0.014473535
16	0xbd515b6c	-0.051112577
17	0xbdea1432	-0.11429633
18	0x3bea4ace	0.0071500307
19	0xbd5b496c	-0.053536817
20	0xbda60b1a	-0.08107586
21	0xbd6c9443	-0.05775858
22	0xbe360d7a	-0.17778578
23	0xbdc33916	-0.09532373
24	0xbe0c3d4d	-0.1369526
25	0xbe0a9e50	-0.13536954
26	0x3cd66d9f	0.026175318
27	0xbd813ef8	-0.063108385
28	0xbb94b91a	-0.0045386674
29	0xbd6ef191	-0.058335844
30	0xbe3a128a	-0.18171135
31	0x3ab29eec	0.0013627685
32	0xbe166c7f	-0.14689825
33	0xbcd10df7	-0.025519354
34	0xbdc4a750	-0.09602225
35	0xbd20544b	-0.039142888
36	0xbc95f7e4	-0.01830668
37	0xbc274bf9	-0.010210984
38	0x3c8503ed	0.016237224
39	0xbd03a050	-0.032135308
40	0x3c414e28	0.011798419
41	0xbd0299c3	-0.03188492
42	0xbb8efe35	-0.0043638
43	0xbd1c1e66	-0.038114928
44	0xbe0938f2	-0.13400629
45	0x3c845d12	0.01615766
46	0x3c6c8ec2	0.014438333
47	0xbdec1bd4	-0.11528745
48	0x3d30058b	0.042974036
49	0xbe0bacf1	-0.1364019
50	0xbe0ca4a3	-0.13734679
51	0xbd8ca00f	-0.06866466
52	0xbd2a7885	-0.041618843
53	0xbd58324c	-0.05278234
54	0xbdbd66d8	-0.092481315
55	0xbd996d00	-0.07491493
56	0xbda90048	-0.08252007
57	0xbe12916c	-0.14313287
58	0xba578451	-0.0008221316
59	0xbd2691af	-0.04066628
60	0xbc79070b	-0.015199433
61	0xbd5f74a8	-0.05455461
62	0xbdd1aff9	-0.10238642
63	0x3c9741ad	0.018463934
64	0xbd56dd08	-0.052456886
65	0xbcbad113	-0.022804772
66	0xbdf0df85	-0.11761383
67	0xbd1c0bdd	-0.03809725
68	0xbc2ced51	-0.0105546275
69	0xbd8a6497	-0.06757467
70	0xbdb37cc0	-0.087640285
71	0x3dd9f543	0.10642483
72	0xbd489502	-0.04897023
73	0x3bd54976	0.0065090014
74	0xbd395f14	-0.04525669
75	0xbccf4a27	-0.025303913
76	0xbd2a8f5b	-0.04164062
77	0x3d2464be	0.040135138
78	0x3cdbeb69	0.02684565
79	0x3d2c38e0	0.042046428
80	0xbdce03c3	-0.10059311
81	0xbdd74661	-0.105114706
82	0xbe2d1108	-0.16901028
83	0xbdb8678b	-0.09004124
84	0xbdbd5437	-0.09244578
85	0xbca8f55b	-0.020624807
86	0xbafd9870	-0.0019347798
87	0xbdb0e4fa	-0.08637424
88	0xbc2a65a9	-0.010400214
89	0xba85d004	-0.0010209088
90	0xbd297399	-0.04137001
91	0xbd240737	-0.040045943
92	0xbce3fe04	-0.027831085
93	0xbcaf3c71	-0.021391125
94	0xbd0d5f86	-0.034514926
95	0xbd79375b	-0.060843807
96	0x3d73ae03	0.059492122
97	0xbcc82df9	-0.024435984
98	0xbe2791bb	-0.16364186
99	0xbdd612bf	-0.10452794
100	0xbde0ef5f	-0.109831564
101	0xbd8d84b9	-0.069100805
102	0x3d8520ea	0.065004185
103	0xbd5299b3	-0.05141611
104	0xbdd21313	-0.10257544
105	0xbd2602fc	-0.04053019
106	0xbe470934	-0.19437104
107	0xbe491998	-0.1963867
108	0x3b0d37b2	0.002154809
109	0x3ce4ddd7	0.027937813
110	0xbd28bc06	-0.041194938
111	0xbe58185c	-0.21103042
112	0x3c630878	0.013857
113	0x3b55a215	0.003259783
114	0xbde49661	-0.11161495
115	0xbc3e03d6	-0.011597594
116	0x3d485b36	0.04891511
117	0x3d2ddc38	0.042446345
118	0xbc4fbef6	-0.012679806
119	0xbc5ea018	-0.013587974
120	0xbdfbfdcf	-0.123042695
121	0xbd98c7c5	-0.07459978
122	0xbcb05ba1	-0.021528067
123	0xbdc37aa8	-0.09544879
124	0xbdbe55bd	-0.09293697
125	0xbde70ef4	-0.11282149
126	0x3cb8f7d7	0.022579117
127	0xbdb7a357	-0.089667015
128	0xbdb0a13d	-0.08624504
129	0xbd189033	-0.037246894
130	0x3d9892cc	0.07449874
131	0x3d56bc39	0.052425597
132	0xbcdcaa9e	-0.026936825
133	0xbd5216e7	-0.051291373
134	0xbe0d6e35	-0.13811572
135	0x3aaf6e72	0.0013384356
136	0xbdaf7ef0	-0.08569133
137	0xbd854249	-0.065067835
138	0xbc9b65d5	-0.018969456
139	0x3c3edd11	0.011649386
140	0xbd902d38	-0.07039875
141	0xbdb40708	-0.087904036
142	0xbd8d2c3b	-0.06893202
143	0x3d4c6798	0.049903482
144	0x3d45de4a	0.048307694
145	0xbd71116c	-0.058854505
146	0xbc540ab5	-0.012942006
147	0xbdb327c5	-0.0874782
148	0x3d3be54c	0.04587297
149	0xbd2cdc8a	-0.04220251
150	0xbdf2be30	-0.11852682
151	0xbd5f541c	-0.054523572
152	0x3d0e58ac	0.034752533
153	0xbe0dd4a4	-0.13850647
154	0xbd2b85c7	-0.041875627
155	0xbd6ded5e	-0.0580877
156	0x3d3721ec	0.044710085
157	0xbd40a14b	-0.04702882
158	0xbc4a5315	-0.01234891
159	0xbc27ba42	-0.010237278
160	0x3c9960a9	0.018722849
161	0x3c9c3f1d	0.019073064
162	0xbd41f1cd	-0.04734974
163	0x3d02e5ce	0.03195744
164	0xbdfd406b	-0.123658024
165	0xbd99dc56	-0.07512729
166	0x3cb8a959	0.022541689
167	0xbe1428ab	-0.14468639
168	0xbd5e5f0b	-0.05428986
169	0x3c250da0	0.010074049
170	0xbc42204e	-0.011848522
171	0xbd1e22bc	-0.038607344
172	0xbde7f5bb	-0.11326166
173	0xba829950	-0.0009963904
174	0xbcbc3d31	-0.022978397
175	0xbd4c3b35	-0.04986115
176	0x3c98691b	0.018604806
177	0x3d3310d3	0.043717217
178	0x3c7218c4	0.014776412
179	0xbdd50ea7	-0.10403185
180	0x3c8c2920	0.017109454
181	0xbe38a879	-0.18033017
182	0xbd30f3f5	-0.043201406
183	0xbd59b36b	-0.053149622
184	0xbcf7decc	-0.030257605
185	0xbc46a803	-0.012125018
186	0x3c0733b0	0.008252069
187	0xbd359122	-0.044327863
188	0xbde4028a	-0.11133297
189	0xbd7cee18	-0.0617505
190	0xbda0db26	-0.07854299
191	0xbbdc8a44	-0.0067303497
192	0x3a36fa7c	0.0006980074
193	0xbcc22a14	-0.023701705
194	0xbbd2d714	-0.0064343307
195	0xbd736d5a	-0.059430458
196	0xbe302717	-0.17202412
197	0xbe1f0bca	-0.15531841
198	0xbd7a1de8	-0.061063677
199	0x3b1207e9	0.0022282547
200	0xbd1cd488	-0.038288623
201	0xbd86207b	-0.06549164
202	0xbd5cb1c0	-0.053880453
203	0xbbbf6f34	-0.005842114
204	0xbb4c7fc6	-0.0031204089
205	0xbda2eab4	-0.07954922
206	0xbba3ae08	-0.0049951114
207	0xbd62db68	-0.055385023
208	0x3ce24c91	0.0276244
209	0x3d02dff4	0.03195186
210	0xbdddbc95	-0.10826985
211	0x3c9d1b17	0.019177957
212	0xbda047f8	-0.07826227
213	0xbdf5387c	-0.11973664
214	0x3cc801ad	0.024414862
215	0xbdc41b56	-0.095755264
216	0x3832fdd4	4.2674903e-05
217	0x3cc541e0	0.024079263
218	0x3ccbc7af	0.02487549
219	0xbd00d64f	-0.03145438
220	0xbc232886	-0.009958392
221	0xbd860196	-0.06543271
222	0xbd837980	-0.06419659
223	0xbde267ce	-0.110549554
224	0xbd136176	-0.035981618
225	0xbb15c759	-0.0022854416
226	0x3d4c50d8	0.049881786
227	0xbdec3c07	-0.11534887
228	0xbdb3764f	-0.087628
229	0x3d0bec75	0.03416105
230	0x3cc05e55	0.023482481
231	0x3d4aec13	0.049541544
232	0xbe13c4ce	-0.14430544
233	0xbdde6dd6	-0.10860793
234	0xbbbfc0ec	-0.0058518555
235	0x3d600167	0.054688837
236	0xbe156a02	-0.1459122
237	0xbd720d21	-0.059094552
238	0xbb04058f	-0.0020144915
239	0xbdd0815a	-0.10180922
240	0x3cccdf4a	0.025008816
241	0xbde40273	-0.1113328
242	0xbb6a2b96	-0.0035731546
243	0xbe0a8661	-0.13527824
244	0x3d1efbe4	0.03881444
245	0xbd31faac	-0.04345195
246	0xbcdf4870	-0.02725622
247	0x3a24b3f9	0.00062829215
248	0xbc0720a6	-0.00824753
249	0xbdb28fe8	-0.08718854
250	0xbc0aac15	-0.008463879
251	0xbd26e6a8	-0.040747315
252	0xbd6d9d93	-0.058011603
253	0xbd5d7dae	-0.054074936
254	0xbd789527	-0.060689118
255	0xbd7b1338	-0.061297625

fc2.bias f4 [300]
0	0xbdc84638	-0.09779018
1	0xbd0df675	-0.034658868
2	0x3ef6aa17	0.48176643
3	0xbd652076	-0.05593916
4	0xbd7ad2bc	-0.06123613
5	0x3c8b8735	0.017032245
6	0xbdc537e7	-0.09629803
7	0xbd22c2c0	-0.03973651
8	0xbd9d08c1	-0.07667685
9	0xbd67c022	-0.056579717
10	0xbdbdccb6	-0.09267561
11	0xbd9f167c	-0.077679604
12	0xbedf141c	-0.4357003
13	0xbc707698	-0.014676712
14	0xbd2a2ea6	-0.041548394
15	0xbcb4722a	-0.022027094
16	0xbc8d7612	-0.017268214
17	0xbdb32713	-0.08747687
18	0xbe841335	-0.25795904
19	0xbbd8438e	-0.00659985
20	0xbdb74ac5	-0.08949808
21	0xbc427b8c	-0.011870276
22	0xbd444fdf	-0.047927734
23	0xbda2715b	-0.07931777
24	0xbd2c0e69	-0.04200593
25	0xbd0db0af	-0.034592327
26	0xbd426296	-0.0474573
27	0xbdabdd1d	-0.083917834
28	0x3e5cce9a	0.21563187
29	0xbdb7f97b	-0.089831315
30	0x3c6b8712	0.014375465
31	0xbbfd1bf4	-0.0077242795
32	0xbceee3f2	-0.029161427
33	0xbdc3c3f1	-0.09558857
34	0xbdb96098	-0.09051627
35	0xbc939598	-0.018015668
36	0xbdb45e43	-0.088070415
37	0xbd8c059f	-0.0683701
38	0xbda15835	-0.07878152
39	0xbcabb8e3	-0.020962184
40	0xbda48c87	-0.08034616
41	0xbd935a6f	-0.07194983
42	0xbcac1e29	-0.021010475
43	0xbd2cd13c	-0.04219173
44	0xbe15422e	-0.14576027
45	0xbddcf815	-0.107895054
46	0xbda080c5	-0.07837061
47	0xbc2ee7d2	-0.010675387
48	0xbd8a377b	-0.06748863
49	0xbde59fc3	-0.11212113
50	0xbddd224e	-0.10797559
51	0xbd8dadc2	-0.06917907
52	0xbd5d2c20	-0.05399716
53	0xbdb40efa	-0.08791919
54	0xbd57c25f	-0.0526756
55	0xbcd8afc9	-0.026451008
56	0x3c617219	0.013760113
57	0xbdb18198	-0.08667296
58	0xbd74d71c	-0.059775457
59	0xbd8b43b6	-0.06800024
60	0xbde71626	-0.11283521
61	0x3fd15655	1.6354471
62	0xbd8c151c	-0.06839964
63	0xbda5a852	-0.08088745
64	0xbe24b3b6	-0.1608418
65	0xbd2f3985	-0.042779464
66	0xbd96b391	-0.07358468
67	0xbd97f519	-0.074197955
68	0xbd25a250	-0.040437996
69	0xbd1b1f1b	-0.03787146
70	0xbcd194b2	-0.025583599
71	0xbdf38615	-0.118908085
72	0xbdb4ee2c	-0.0883449
73	0xbd51da87	-0.051233795
74	0xbd23ff81	-0.04003859
75	0xbe0deadb	-0.13859122
76	0xbdd7cb58	-0.105368316
77	0xbdb9812f	-0.09057843
78	0x3f255e71	0.6459723
79	0xbdde70b7	-0.108613424
80	0xb95ffff3	-0.00021362286
81	0xbc50fd74	-0.01275574
82	0x3c01187b	0.007879372
83	0xbd0cb233	-0.03434963
84	0xbd79cbf2	-0.060985513
85	0xbd1eaa6e	-0.038736753
86	0xbd9dbe87	-0.07702356
87	0xbdbd1035	-0.09231607
88	0xbcf91086	-0.030403387
89	0xbd8b35e6	-0.0679739
90	0xbda16c3b	-0.078819714
91	0xbdce92f9	-0.100866266
92	0xbda3664f	-0.07978498
93	0xbd0a93fc	-0.033832535
94	0xbc5915af	-0.013249799
95	0xbc92ba47	-0.01791109
96	0xbd4fdb69	-0.050746355
97	0x3f26e901	0.65199286
98	0xbf055a19	-0.52090603
99	0xbde7440b	-0.11292275
100	0xbd332692	-0.043737955
101	0x3f957023	1.1674846
102	0xbd76b9d5	-0.060235817
103	0xbd9c6511	-0.076364644
104	0xbd268205	-0.04065134
105	0xbcbda05b	-0.023147753
106	0xbdd5a2c2	-0.10431434
107	0xbd344022	-0.044006474
108	0xbd5cf6ee	-0.053946428
109	0xbd2e1db2	-0.04250879
110	0xbd6d9147	-0.057999875
111	0xbcfb5fb5	-0.030685285
112	0xbbeb1750	-0.00717441
113	0xbc625963	-0.013815257
114	0xbd53c3a2	-0.051700242
115	0xbdb2fcdf	-0.087396376
116	0xbd6abb12	-0.05730731
117	0xbda2c4b9	-0.07947678
118	0xbdb23836	-0.08702128
119	0xbc939e2e	-0.018019762
120	0xbd02c44a	-0.031925477
121	0xbd471180	-0.048600674
122	0xbda6721c	-0.081272334
123	0xbcf980f8	-0.030457005
124	0xbd678780	-0.056525707
125	0xbdab8028	-0.08374053
126	0xbd781df5	-0.060575444
127	0x3bfccadf	0.007714614
128	0xbcc083c0	-0.023500323
129	0xbc84384e	-0.01614013
130	0xbc912960	-0.017719924
131	0xbd1d93c3	-0.038470995
132	0xbd921176	-0.07132237
133	0x3ef54d45	0.47910514
134	0xbe133404	-0.14375311
135	0xbdd7a062	-0.105286375
136	0xbd3609eb	-0.044443052
137	0xbd8b643f	-0.0680623
138	0xbd0d16ee	-0.034445696
139	0xbcb6e187	-0.022324337
140	0xbd0a025a	-0.03369365
141	0xbdaadbc6	-0.083427
142	0xbd97bc0d	-0.07408915
143	0xbc4f80fb	-0.012665029
144	0xbd894ad9	-0.06703729
145	0x3b7d6429	0.0038664436
146	0xbda14818	-0.07875079
147	0xbd881b29	-0.066458054
148	0xbd60a8b2	-0.05484838
149	0x3ed6c988	0.4195063
150	0xbdd5c35b	-0.10437652
151	0x3a28d5ec	0.0006440568
152	0xbd8f3256	-0.06992023
153	0xbcc6d9b2	-0.024273727
154	0xbd925167	-0.071444325
155	0xbd04dc1a	-0.032436468
156	0xbcebead6	-0.028798502
157	0xbdb7f7f9	-0.08982844
158	0xbdc676fa	-0.09690662
159	0x3be8451f	0.007088318
160	0xbdb9db1e	-0.090749964
161	0xbdf30ee7	-0.11868077
162	0xbd3bf06e	-0.04588359
163	0xbd775580	-0.060384274
164	0xbd64c346	-0.05585029
165	0xbdb3f3b1	-0.08786715
166	0xbdfcf9cb	-0.12352332
167	0x394fcece	0.00019818099
168	0xbdbf17f7	-0.09330743
169	0xbd5b9463	-0.05360831
170	0x3f1cc4ba	0.6123768
171	0xbcd7ea42	-0.02635682
172	0xbd998bc6	-0.07497363
173	0xbcbea143	-0.023270255
174	0xbd88388f	-0.06651413
175	0xbcec94e6	-0.028879594
176	0x3edb9ea5	0.42894474
177	0xbda0059c	-0.0781357
178	0xbcaee8ca	-0.021351237
179	0xbb5dbfc6	-0.003383623
180	0xbd210ed1	-0.03932077
181	0xbcc4c521	-0.02401978
182	0xbdaec0c9	-0.085328646
183	0xbd393622	-0.04521764
184	0xbd0422d7	-0.03225979
185	0x3e9e27ab	0.3088964
186	0xbee49132	-0.44642025
187	0xbce489c4	-0.027897723
188	0xbd7ebed1	-0.062193695
189	0xbdaa6b9e	-0.083213076
190	0xbd4cd578	-0.050008267
191	0xbd87d742	-0.06632854
192	0x3f35a4d5	0.7095464
193	0xbb3219bc	-0.0027175983
194	0xbdd2ef5c	-0.102995604
195	0xbe2408f2	-0.16019037
196	0xbdb0e916	-0.086382076
197	0xbc9da3ff	-0.019243238
198	0xbe2d4b62	-0.16923288
199	0xbcb4d20e	-0.022072818
200	0xbdc6b4b2	-0.09702434
201	0xbd4f33d6	-0.050586544
202	0xbd8d6285	-0.06903557
203	0xbd9182ca	-0.07105024
204	0xbdc828ad	-0.09773383
205	0x3e9ba585	0.3039972
206	0xbde10b66	-0.10988502
207	0xbd685a6b	-0.056726854
208	0xbdb9249f	-0.09040188
209	0xbd86ed56	-0.06588237
210	0xbdb669d6	-0.08906905
211	0xbdd09ebe	-0.10186528
212	0x3f053dfd	0.5204771
213	0xbcfb0732	-0.03064308
214	0xbdce33af	-0.100684516
215	0xbe089887	-0.13339435
216	0xbd40f91a	-0.04711256
217	0xbdc18a9b	-0.09450265
218	0xbcb772b0	-0.022393554
219	0xbdc8aaab	-0.09798177
220	0xbd37ad02	-0.044842727
221	0xbdd848ec	-0.10560784
222	0xbda3b939	-0.07994313
223	0xbdc2ae26	-0.095058724
224	0x3cbb3744	0.022853501
225	0xbe09ecd5	-0.1346925
226	0x3b9b8cbb	0.004747001
227	0xbdd37a88	-0.10326105
228	0xbc9ae47d	-0.01890778
229	0xbca10296	-0.019654553
230	0xbdb8bc11	-0.09020246
231	0xbd675263	-0.056475054
232	0xbbbbf084	-0.005735459
233	0xbd46ddf0	-0.0485515
234	0xbcd9e615	-0.02659897
235	0xbdb3e45e	-0.08783792
236	0xbd1639be	-0.03667616
237	0x3ab468be	0.0013764126
238	0xbdabcb59	-0.08388395
239	0xbcb84628	-0.02249439
240	0x3f05a776	0.5220865
241	0xbda93857	-0.08262699
242	0xbd27b6f8	-0.040945977
243	0xbda436cc	-0.08018264
244	0xbc9622d2	-0.01832715
245	0x3f8a814f	1.0820712
246	0xbdd12059	-0.10211248
247	0xbd5c16e2	-0.05373276
248	0x3f5c36c0	0.8602104
249	0xbe223ed0	-0.15844274
250	0xbdad5763	-0.08463933
251	0xbd1ebe90	-0.038755953
252	0xbdb91955	-0.09038035
253	0xbd9ea893	-0.07746997
254	0xbddb5287	-0.107091
255	0x3f2ea199	0.6821533

fc3.weight f4 [1, 300]
0	0xbc5c2fba	-0.013439113
1	0x3bfda011	0.0077400287
2	0x3cacbdf8	0.021086678
3	0xbc3b6b88	-0.011439212
4	0x3c8705d4	0.016482271
5	0xbbde2358	-0.0067791156
6	0xbdc11685	-0.094281234
7	0xba26399f	-0.00063409837
8	0x3cfbd159	0.030739473
9	0x3bc498bd	0.005999653
10	0x3ccc7451	0.024957808
11	0xbc5a1c14	-0.013312358
12	0xbcd86f0c	-0.026420139
13	0x39d55a8c	0.0004069399
14	0xbce3a4df	-0.027788578
15	0xbc8c1a14	-0.017102279
16	0x3baf8b50	0.0053571835
17	0xbc8ff771	-0.017574044
18	0xbcd557bf	-0.026042817
19	0xbb97aa34	-0.004628444
20	0x3c01e332	0.007927703
21	0xbcdae5e5	-0.02672095
22	0xbca1dec0	-0.019759536
23	0xbba5b880	-0.0050573945
24	0x3abbe9f5	0.0014336692
25	0xbcc2c915	-0.023777524
26	0xbb8da2f7	-0.0043224054
27	0xbce0f5c0	-0.027460933
28	0xbc7a0c30	-0.015261695
29	0xbc4c496f	-0.01246868
30	0xbbf9c8e3	-0.0076228245
31	0x3ad7e2d8	0.0016470803
32	0xbcdd0af6	-0.026982766
33	0xbc9b4c18	-0.018957183
34	0xbc7e2e89	-0.0155140245
35	0xbc89bdc5	-0.016814122
36	0xbcdd7129	-0.027031498
37	0x3c5e920d	0.013584626
38	0x3c95e164	0.018295951
39	0xbcfb8250	-0.030701786
40	0x3c2c2f57	0.010509334
41	0xbb9a8e3c	-0.0047166627
42	0xbaa9b385	-0.0012947178
43	0xbbb54a24	-0.00553252
44	0x3b95954d	0.004564917
45	0x3ccbc661	0.024874868
46	0xbbdbe429	-0.0067105484
47	0x3cec9091	0.028877528
48	0xbcd45ee8	-0.025924161
49	0xba1288df	-0.00055898534
50	0xbc5d1a64	-0.013495062
51	0xbbb15960	-0.0054122657
52	0xbce2e15c	-0.02769535
53	0x3bdf664f	0.006817616
54	0x3bc27107	0.005933884
55	0x3bdd043c	0.0067448895
56	0xbcd4d8b8	-0.025982246
57	0xbc1f1a37	-0.00971084
58	0x3cccbbbd	0.024991864
59	0xbbea6caa	-0.007154067
60	0x3c84ad90	0.016196042
61	0x3d96d4cb	0.07364806
62	0x3b8a41fc	0.0042192917
63	0x3cd37cc5	0.02581633
64	0x3c3e6647	0.0116210645
65	0xbc50e2d4	-0.012749393
66	0xb9d33fb7	-0.00040292527
67	0x3cc9b94b	0.024624487
68	0xbaa7117c	-0.00127463
69	0xbc07520d	-0.0082593085
70	0xbbc53a57	-0.0060189175
71	0xbc81f39a	-0.015863229
72	0xba61efb9	-0.00086187903
73	0x3ca44890	0.020054132
74	0xbce4c944	-0.027928002
75	0x3bbfc38b	0.005852168
76	0x3bd46352	0.0064815665
77	0x3bc9e445	0.006161245
78	0x3cecb05b	0.028892687
79	0x3cdb27c8	0.026752368
80	0xbbf1cec8	-0.0073793866
81	0x3bd0d453	0.0063729673
82	0x3b56c170	0.0032769106
83	0x3c3bb6e7	0.011457182
84	0x3c8b1136	0.01697598
85	0xbcb53f6c	-0.022124968
86	0xbce99158	-0.028511688
87	0xbc130f10	-0.008975759
88	0xbbc0b56c	-0.005881002
89	0xbb0af8da	-0.0021205456
90	0xbbb364bd	-0.0054746554
91	0xbcfa7f4f	-0.030578284
92	0xbc2d4032	-0.010574387
93	0xbcebc6f0	-0.028781384
94	0xbccfaa29	-0.025349693
95	0x3c12bd32	0.0089562405
96	0xbc9b0ad2	-0.018926058
97	0x3c2b492b	0.010454456
98	0x3aac03a0	0.0013123639
99	0x3c0def5f	0.008663028
100	0xbb3f946b	-0.002923275
101	0x3cc3ef56	0.023917835
102	0x3ae5fcef	0.0017546694
103	0xbb7e2711	-0.003878061
104	0xbc80f61b	-0.015742352
105	0xbcf5863a	-0.02997123
106	0xbc80eba4	-0.015737362
107	0x3b9cf21e	0.004789605
108	0x3cbb934a	0.022897381
109	0xbc313394	-0.01081552
110	0xbc8b1829	-0.016979294
111	0xbc39e8d8	-0.011347018
112	0x3be90002	0.0071105966
113	0xbcb3d3c0	-0.021951556
114	0xbbdc3d8c	-0.006721204
115	0xbc408ea7	-0.011752761
116	0xbc30dc1c	-0.010794666
117	0xbc6e02bb	-0.014527018
118	0xbb1707ea	-0.0023045489
119	0xbc60f816	-0.013731023
120	0x3bccd521	0.006250993
121	0xbb065b3e	-0.0020501162
122	0xbc3cbfd4	-0.011520345
123	0x3c9e7857	0.019344492
124	0x3c734c6c	0.014849763
125	0x3be78971	0.007065945
126	0x3b87ee85	0.004148307
127	0x39679d88	0.00022088562
128	0x3c2be53a	0.010491664
129	0xba19d732	-0.00058685534
130	0x3cd5d5d7	0.026102943
131	0x3cd5ec61	0.02611369
132	0xbc9ef85e	-0.01940554
133	0x3c61682f	0.013757749
134	0xbc53056f	-0.012879713
135	0x3bfed743	0.007777126
136	0xbb944e0e	-0.0045259064
137	0x3ce34f06	0.027747642
138	0xbb082147	-0.0020771788
139	0x3aca36e9	0.0015427741
140	0xbcb80117	-0.022461457
141	0x3aca1c78	0.0015419861
142	0x3cf120c3	0.029434567
143	0xbb97acb5	-0.0046287426
144	0xbbfa12b6	-0.007631625
145	0xbc38826b	-0.011261563
146	0xbb1dd190	-0.0024081208
147	0xbceba9b0	-0.028767437
148	0xbc001338	-0.007817082
149	0x3d002f31	0.031295005
150	0x3d061034	0.032730296
151	0xbce4b26a	-0.027917106
152	0xbc84e42f	-0.016222088
153	0xbcaf30df	-0.021385608
154	0x3bf07a6e	0.0073388135
155	0xbc4f911b	-0.012668873
156	0x3cbfabb1	0.023397299
157	0x3c94ae12	0.01814941
158	0xbce08678	-0.02740787
159	0xbcca30e1	-0.02468151
160	0x3b3ab1ee	0.0028487402
161	0xbcd25794	-0.025676526
162	0x3c706d83	0.014674547
163	0xbb8d09da	-0.004304153
164	0x3ba6dee4	0.0050924886
165	0xbc14600c	-0.0090561025
166	0x3c939ffd	0.018020624
167	0x3bf748de	0.0075465282
168	0xbc459a1a	-0.012060666
169	0xbbc5ebad	-0.0060400576
170	0x3c697df8	0.014251225
171	0x3c6ff32a	0.014645377
172	0x3bdfc1c7	0.00682852
173	0x3ca2dac3	0.019879704
174	0xbbed7b51	-0.0072473665
175	0x3bdb7f6d	0.00669854
176	0x3c89b9ef	0.016812293
177	0xbcab3608	-0.020899788
178	0xbc1a9398	-0.009434603
179	0x3c7b596b	0.015341143
180	0xbcd9b422	-0.026575152
181	0x3be451e4	0.00696777
182	0x3bd8050b	0.006592398
183	0x3af7d277	0.0018907328
184	0x3c85b53b	0.016321769
185	0x3cc7ed14	0.02440504
186	0xbd19aa49	-0.037515912
187	0x3ce26d4f	0.027640013
188	0xbc6edc56	-0.014578899
189	0xbce699af	-0.028149454
190	0x3c5c4402	0.013443949
191	0x3c1210b3	0.008915114
192	0x3cf2a6d1	0.02962056
193	0xbb84f39e	-0.0040573617
194	0x3ca0bdad	0.019621694
195	0x3c377997	0.011198423
196	0x3adb89d0	0.0016749445
197	0xbbf9441b	-0.0076069958
198	0x3c9696e2	0.018382493
199	0x3c0480c4	0.008087341
200	0x3b6f660c	0.003652933
201	0xbce2c25e	-0.027680572
202	0x3cadc247	0.021210803
203	0xbab2b827	-0.0013635204
204	0xbbca4df1	-0.006173842
205	0x3c8bb365	0.017053315
206	0xbb470344	-0.0030366937
207	0xbbbb4039	-0.005714443
208	0x3b6b9e61	0.0035952555
209	0x3bd9a66c	0.0066421535
210	0xbcf45c66	-0.029829215
211	0xbac386bb	-0.0014917472
212	0x3c41c692	0.011827128
213	0xbc0e5057	-0.008686147
214	0x3cb1f513	0.021723306
215	0xbc937f02	-0.018004898
216	0x3c10fb35	0.008848955
217	0x3c379ce0	0.0112068355
218	0x3bb25963	0.0054427846
219	0xbc46db86	-0.012137299
220	0xbc543191	-0.012951271
221	0xbc662132	-0.014046
222	0x3b594715	0.003315394
223	0xbb7b0fa6	-0.0038308888
224	0xbce39ed5	-0.027785698
225	0x3c9f938f	0.019479541
226	0xbcde135a	-0.027108837
227	0xbad133a9	-0.001596083
228	0xbcde4af7	-0.027135355
229	0xbc9570ac	-0.018242203
230	0xbc8ee5b4	-0.017443515
231	0x3c885c5e	0.016645607
232	0xbc641756	-0.013921579
233	0x3c9338ca	0.017971415
234	0xbcdfb5cc	-0.027308367
235	0x3cdb418a	0.02676465
236	0x3ce252bd	0.027627343
237	0x3bd5e7ca	0.0065278756
238	0x3c38fe27	0.011291063
239	0x3c6bb47a	0.014386291
240	0x3cd7f945	0.026363978
241	0xba8e7443	-0.0010868389
242	0xbbd22888	-0.006413523
243	0x3c9fe186	0.019516718
244	0x3b87e47b	0.00414711
245	0x3cb55189	0.022133606
246	0xbcc7bed5	-0.024382988
247	0x3c85390c	0.016262554
248	0x3d5aca31	0.05341548
249	0x3c66a238	0.014076762
250	0x3c5d435e	0.013504831
251	0x3b47d85d	0.0030493953
252	0x3ba8c4c0	0.0051504076
253	0xbceaf6bb	-0.028682103
254	0xba53e381	-0.0008082912
255	0x3d1aaa53	0.03776009
