checkpoint_actor.pth (torch_old, 541443 bytes, 6 tensors)

fc1.weight f4 [400, 33]
000000 fc 8c 32 bd c2 ad 89 be 52 c1 4b bd aa 85 7f bd
       -0.043591484 -0.2689038 -0.04974491 -0.06238333
000010 bd 95 a3 3d da c1 b0 3e c7 79 18 3c b5 d2 8f 3d
       0.07987545 0.34522897 0.009306378 0.07022611
000020 24 1c 29 be 45 80 11 be 1b 55 0b be 17 3a 11 be
       -0.16514641 -0.14209087 -0.13606684 -0.14182316
000030 9f 6b a4 3e b0 4a 19 bd 83 d2 22 3f cc c6 9d 3e
       0.32113358 -0.037424743 0.63602465 0.30815732
000040 fc 91 7c 3e 00 3f b9 bd 0e fc cc 3d 19 69 db 3d
       0.24665064 -0.090452194 0.10009013 0.10713405
000050 94 b6 fc 3d 58 35 08 3d fa 9d 7e 3d 06 3b ab 3e
       0.123395115 0.033253998 0.062162377 0.3344347
000060 fc 69 a2 3e e9 e4 da bc ef a5 74 bd 51 d8 0a 3e
       0.31721485 -0.026720481 -0.05972856 0.1355908
000070 ce 13 e6 bd 8a 0b f5 3c c1 3b 14 be 44 04 88 bc
       -0.11234246 0.029912729 -0.1447592 -0.016603597
000080 fb de fa bc 99 3d f2 bd fe 00 0b be de 81 cd 3c
       -0.030623903 -0.11828155 -0.13574597 0.02508634
000090 1d 15 0f 3d 1b a7 26 3d af e9 58 bd f0 86 ef 3d
       0.034932245 0.040686708 -0.052957233 0.11695659
0000a0 ec b4 c4 3d f3 f4 3e be 6d 5e 1d 3e ce 7c 3a 3e
       0.096048206 -0.18648128 0.15368052 0.18211672
0000b0 2a 3b c5 bc e1 01 46 3b 7e bd b6 3d 0a 1a ee 3c
       -0.024076063 0.0030213522 0.089228615 0.02906515
0000c0 1a 77 ea bd 90 e3 29 bc d8 ad ef bc 49 06 c6 bd
       -0.11448498 -0.0103691965 -0.0292577 -0.096691675
0000d0 c1 02 8a 3e 37 9e 05 bb 56 9f 0c 3c 33 f2 4d be
       0.26955226 -0.0020388493 0.0085829105 -0.20111923
0000e0 c6 2f 11 3c 1a 79 9c bc d3 2d 67 3d cb 5e 7a 3d
       0.008861488 -0.019100714 0.056440186 0.061125558
0000f0 62 1a 9c 3d da 01 dd 3e 34 cb 38 bc dc d5 b6 bd
       0.076222196 0.43165475 -0.011278916 -0.08927509
000100 40 ad 1f 3a 6b 59 ff bf 7b e8 99 bc 7b a1 0e 3f
       0.0006091185 -1.9949163 -0.018787613 0.5571515
000110 3e ad d6 be 46 89 b3 bd 23 68 82 3d 61 09 12 be
       -0.41929048 -0.08766417 0.06367519 -0.1426139
000120 28 d9 11 be 1f d6 f3 3e 0b 24 a5 3e d7 72 a4 3d
       -0.14242995 0.476243 0.3225406 0.080297165
000130 97 88 b8 3d b6 97 af 3e 67 7f df be 9b 33 d4 bd
       0.090104274 0.34295434 -0.43651888 -0.103614055
000140 e6 7a 63 3e 66 c0 89 bd 8a 94 59 be bb 9a 14 3e
       0.22214851 -0.0672615 -0.2124807 0.1451215
000150 bb a3 b4 be 10 91 a6 3d 7d 86 80 bd c1 ba 99 be
       -0.35281166 0.08133137 -0.062756516 -0.30025294
000160 e7 7e aa bd 1e 9f 3c bd 40 ad 26 be 7c fc 8d be
       -0.08324986 -0.046050183 -0.16277027 -0.27731693
000170 84 c7 6d 3d 6b fe 86 3e 5e a2 2b bc 8e 4f 94 3c
       0.0580516 0.2636598 -0.010475723 0.01810434
000180 01 7c 8e be d2 38 df 3c 33 84 0c 3f ca 4e 63 3f
       -0.27828982 0.027248774 0.5488922 0.887921
000190 c3 c4 b7 be 44 28 73 be 7e 74 5a 3e a1 3d 34 bd
       -0.35892305 -0.23745829 0.213335 -0.044004086
0001a0 e3 39 35 3d 0a e6 0c be 1e fe 31 3d 13 35 18 be
       0.04424466 -0.13759628 0.043455236 -0.14863996
0001b0 d6 a7 e6 bd 4c 3e 9b bd c1 0b b3 3d 93 e9 a6 3d
       -0.11262481 -0.075802416 0.08742476 0.081500195
0001c0 78 7b c7 be 42 99 c3 3d ef 8b 03 3e 55 69 4d 3d
       -0.38961387 0.09550716 0.12846349 0.05014928
0001d0 eb 65 5e bc 79 91 f3 3d c6 85 3b bd 86 5d 8d bd
       -0.013574104 0.11892981 -0.045781873 -0.06902604
0001e0 2a bc 93 3d 61 da 31 3e b3 46 40 3e 10 2f 10 bd
       0.07213624 0.17368461 0.1877697 -0.035201132
0001f0 69 16 45 bd 5d 30 7f bc 3f 6b 5f be 17 2e 12 3c
       -0.048117075 -0.015575496 -0.21818255 0.0089221215
000200 55 f3 05 3d 29 25 39 3e b0 9d 9b bb ab b3 5b bf
       0.032702763 0.18080582 -0.0047490224 -0.85821027
000210 50 a8 59 3e 16 ef dc 3e e8 ff 09 be 1d 00 20 be
       0.21255612 0.43151158 -0.13476527 -0.15625043
000220 81 dc 8a 3e 85 f8 c3 be e1 5e 1f bd c9 23 aa 3e
       0.27121356 -0.38275543 -0.038908843 0.33230427
000230 89 1b b5 be 47 b1 18 3e 33 e3 64 3e 35 f5 f7 3e
       -0.3537257 0.14911376 0.22352295 0.48429266
000240 f2 4a 0b bd f2 bf 54 bd 51 ed 9e 3e d3 02 ca 3d
       -0.03400702 -0.051940866 0.31040433 0.0986382
000250 a7 cd bc bd 35 3d af bd 53 8f 4d 3e 35 f6 38 be
       -0.092189126 -0.08556596 0.20074205 -0.1806267
000260 44 f9 1b 3f 40 45 ed 3c b7 8e ba 3d 96 a7 d2 3d
       0.60927224 0.028963685 0.09109252 0.10285871
000270 03 ee 00 be 6d 4c 32 3e 07 b7 2d 3e 5d e1 bf 3e
       -0.12590794 0.17411967 0.1696435 0.37476626
000280 1f 40 15 be 4b a8 44 3d f7 cc a3 be 14 1a 29 bc
       -0.14575242 0.04801206 -0.31992313 -0.010321159
000290 84 e3 58 bf bc 81 1d be fd d2 b1 3e 66 8f 80 be
       -0.8472216 -0.15381521 0.34731284 -0.25109404
0002a0 b9 e0 1c be 09 84 45 bd 5d eb ab 3d 03 76 a9 be
       -0.153201 -0.04822162 0.08394501 -0.33097848
0002b0 94 42 15 3d b3 18 50 3e bc 3f b3 be 74 45 0e be
       0.036440447 0.20321922 -0.35009563 -0.13893682
0002c0 38 6a 1a be 69 4d a7 be c1 f0 36 bc a3 a6 eb bd
       -0.15079582 -0.32676247 -0.011165799 -0.11506393
0002d0 75 09 50 be 75 c0 92 be 37 ad 44 3e a6 5c df bd
       -0.20316108 -0.28662458 0.19206701 -0.10906343
0002e0 a2 53 aa bd f5 86 62 be ec 56 e8 3e 1c b6 24 3d
       -0.08316733 -0.22121795 0.45378816 0.040212736
0002f0 a4 cd 8f be 41 b0 7e be 0c 2b 71 3e bf a6 ab 3d
       -0.2808658 -0.24871923 0.23551577 0.08381414
000300 f3 81 27 3e 8f 80 b7 3d e9 c2 12 3d f0 5c fd bd
       0.16358165 0.089600675 0.035830412 -0.12371242
000310 5f cd 3b bd 1b 42 7b 3f 57 36 6f 3e 94 07 af 3e
       -0.045850154 0.98147744 0.23360573 0.3418547
000320 02 b7 ae bd 83 ae a7 bd fd 38 21 be 6c e3 c4 3d
       -0.08531 -0.08187582 -0.15744396 0.0961369
000330 13 ad df bd 83 2d f6 3c 5d 08 33 bd f6 cc 87 3e
       -0.10921683 0.030050999 -0.043709148 0.2652356
000340 cc e6 21 3e 08 fe 36 be af f5 7b bb bf a7 0c be
       0.15810698 -0.17870343 -0.0038446 -0.13735865
000350 16 0c ec 3d f3 b0 4c be ef a1 30 bd c4 f8 31 be
       0.11525743 -0.19989376 -0.043123182 -0.17380053
000360 7a 22 48 3d 2c d8 f9 bd 12 c3 70 3e ef 32 dd bd
       0.048861004 -0.12199435 0.23511913 -0.108007304
000370 a9 54 d3 3d 66 58 da 3e 8d c5 0f 3e 5d af 26 be
       0.10318882 0.42645568 0.14040203 -0.16277833
000380 0c 43 19 be e4 e9 f4 3e 16 76 5d 3c 02 7d 9f 3c
       -0.14966983 0.47834694 0.013516923 0.019468788
000390 54 6b 02 bf 66 6c ac 3c 00 ba 79 3f 59 29 78 bd
       -0.5094502 0.021047782 0.9754944 -0.060586307
0003a0 4c fd 97 be fe 00 56 3e 8f fa e3 3d 4e 3f 96 bd
       -0.29685438 0.20898816 0.11131775 -0.07336293
0003b0 fb a8 7b be 69 7e db 3d 1d d3 e4 3d 9e d4 e2 bd
       -0.2457618 0.1071747 0.11173079 -0.1107571
0003c0 22 19 81 be 99 5f b1 be ac c3 94 3d cf 58 38 be
       -0.25214487 -0.34643248 0.07263884 -0.18002628
0003d0 b0 20 d8 3e 4e 81 9a 3e d7 b8 32 be 04 a1 81 be
       0.4221244 0.30176777 -0.17453323 -0.25318158
0003e0 d8 29 77 3e 86 c1 fe bd 57 8d e1 3b 98 e2 0e 3d
       0.24137056 -0.124392554 0.006883304 0.034884065
0003f0 c5 64 fd bd 8d 14 25 be b4 8b 27 3d e6 47 8b 3d
       -0.12372736 -0.16121121 0.040904716 0.06800823

fc1.bias f4 [400]
000000 a2 47 69 bd 30 3d 5a be 63 f8 60 be cb 3f a2 3e
       -0.05695308 -0.21312404 -0.21969752 0.31689295
000010 65 a3 93 be 18 f1 40 bc c8 f3 dc be dd 0d aa 3d
       -0.28835598 -0.011776231 -0.4315474 0.083034255
000020 01 d1 82 be 67 16 84 be 55 01 58 be 69 d4 83 be
       -0.25550082 -0.25798342 -0.21094258 -0.25747994
000030 08 e1 ad be b3 00 e5 be 99 7e 7d be c0 7a 65 bd
       -0.33960748 -0.44727096 -0.24755324 -0.056025267
000040 2e b8 c7 be 72 93 b0 3d cf fc 4f be ff 0d b0 bd
       -0.39007705 0.08621873 -0.20311283 -0.085964195
000050 68 cf c4 be f2 94 90 be 5d f5 87 3d 70 f7 e1 be
       -0.38439488 -0.28238636 0.06638596 -0.44134092
000060 14 fa 7d be 11 1b ff bd 77 9b 37 bd e7 0d 4b be
       -0.24802428 -0.124563344 -0.044825997 -0.19829522
000070 fc 4d 0c bf 75 e2 9a 3c 63 31 47 be 58 38 ae bb
       -0.54806495 0.018906811 -0.19452433 -0.0053167753
000080 53 c5 3d be 3d 37 1b 3e 83 20 07 bd 8d f4 bd 3d
       -0.18532304 0.1515779 -0.03298999 0.0927516
000090 f0 29 95 be 82 b1 79 be e3 fd d5 bd 56 35 4c bd
       -0.29133558 -0.2438412 -0.10448816 -0.049855553
0000a0 96 50 85 3d 16 24 4b bd 88 ab cb bd 18 53 72 be
       0.06509511 -0.04959496 -0.09944826 -0.2366451
0000b0 f6 ad ed bd 3f c6 13 bd 60 0a bc be 1b 3e 9c bd
       -0.11605446 -0.036077734 -0.36726665 -0.07629033
0000c0 4c 20 11 be 5d 18 c7 be c2 b7 00 bd 92 96 66 be
       -0.14172477 -0.38885775 -0.031425245 -0.22518376
0000d0 e3 95 0f bf 3f 43 7e bb 6a 24 c2 be 75 a3 77 be
       -0.56088084 -0.0038797406 -0.37918407 -0.24183448
0000e0 a3 76 59 be e9 b8 15 bd 72 14 01 be 0c 10 f7 3c
       -0.21236663 -0.036553297 -0.12605456 0.030159019
0000f0 88 2c 3c 3d 33 d0 58 be ad 89 72 be 10 23 65 bb
       0.045940906 -0.21173172 -0.23685332 -0.0034963526
000100 ad 58 d8 be eb d5 2a be df 34 08 be 36 d0 63 be
       -0.42255154 -0.16683166 -0.13301419 -0.22247395
000110 c1 87 d1 be 9f f8 15 3e 88 3d 49 be 8d ab ea 3d
       -0.40923885 0.14645623 -0.19652379 0.11458502
000120 04 d8 81 3d 1b 75 a7 be a7 79 40 3d 79 1c d2 bd
       0.0634003 -0.32706532 0.046991017 -0.10259337
000130 42 6c 02 3e 96 6a 05 be bf 2e b0 be 2c 17 8f be
       0.1273661 -0.1302894 -0.34410664 -0.27947366
000140 a6 48 95 3d c3 7d f8 bd 16 42 2e be 10 cf e5 3d
       0.07289247 -0.12133362 -0.17017397 0.11221135
000150 df 6f 35 be f4 ec a5 be 11 28 80 be a6 21 dc bd
       -0.17718457 -0.32407343 -0.25030568 -0.107486054
000160 15 a4 2c bd 15 89 eb be eb 34 64 be f7 68 c7 3c
       -0.04214867 -0.46003023 -0.22285812 0.024342043
000170 39 ae 85 be f7 c4 e3 be 0b 59 b5 bd 25 62 9b be
       -0.26109484 -0.4448621 -0.08854874 -0.30348316
000180 18 94 8e be 97 f6 9c be d7 f3 cf 3d e6 d2 8c bd
       -0.27847362 -0.30656883 0.10153931 -0.06876163
000190 fe 18 08 be e0 7f 86 be c7 d7 ab be 6e 77 64 be
       -0.13290784 -0.26269436 -0.33563063 -0.22311184
0001a0 93 3a ef bd 3a 5c a2 bb 9a 77 c6 bc 48 f8 ac 3d
       -0.11681094 -0.004954842 -0.024226952 0.084457934
0001b0 a9 3f e0 bd fb e3 15 3d 62 30 23 bd db 3e 81 bd
       -0.10949642 0.036594372 -0.039841063 -0.06310817
0001c0 9d d9 99 bd c2 ad fa 3d b8 40 9d be b0 0e 7f be
       -0.075122096 0.12240173 -0.3071344 -0.24907947
0001d0 44 29 91 3c c0 61 4a be 1a cb f7 bc 0b 9f 95 bd
       0.017719872 -0.19763851 -0.030248214 -0.07305726
0001e0 9a 15 b0 bd 5f cf 91 be 1b a6 58 be 75 d5 95 be
       -0.0859787 -0.28478524 -0.21157114 -0.29264417
0001f0 dd 64 d0 bd 6a 7d dd be 31 9c 21 be 6d c9 90 3b
       -0.10175488 -0.43259746 -0.15782239 0.004418543
000200 a2 89 12 be 18 9b 8c 3e 0e ca ab be 9f d6 99 be
       -0.14310315 0.27462077 -0.33552593 -0.30046555
000210 42 93 a9 be 8c c8 aa bc 00 33 07 bd d9 f3 29 be
       -0.3312016 -0.020847581 -0.03300762 -0.16596927
000220 b7 44 b4 be a5 a7 6c be 0f cf bf be e8 ad 74 be
       -0.35208675 -0.23110826 -0.3746266 -0.23894465
000230 f6 58 bb be 8f 8a aa bd 8a 80 28 be ad 33 29 be
       -0.3659131 -0.08327209 -0.16455284 -0.16523619
000240 06 16 72 be e8 6a dc 3d 04 bf ea 3d 45 2d 4e 3d
       -0.23641214 0.10762578 0.114622146 0.05033614
000250 bf a5 82 bd b6 57 49 3c ef b3 70 be 6a 5c 34 be
       -0.0637927 0.012288978 -0.23506139 -0.17613378
000260 2f 03 25 be 43 9e c6 be 59 45 83 bd 35 42 0e bf
       -0.16114496 -0.3879262 -0.064097114 -0.55569774
000270 d4 26 1d be bd 91 f1 be eb 34 dd be da 57 b7 bd
       -0.15346843 -0.47181502 -0.43204436 -0.08952303
000280 65 e1 bc be 4a a9 9d 3d 2e 16 0b be b6 4f 0f bf
       -0.36890712 0.07698305 -0.1358268 -0.55981004
000290 c9 6b 19 be 61 f6 c0 bd 53 ca 25 3c a6 37 22 be
       -0.14982523 -0.09421993 0.010119039 -0.1584154
0002a0 ab 4b 61 be b1 4c d7 3d f4 04 91 be d4 72 f9 be
       -0.22001521 0.105126746 -0.2832409 -0.4872042
0002b0 7d b1 32 be e7 be 8f bd 1f 10 09 be e6 7e e2 bd
       -0.17450519 -0.070188336 -0.13385056 -0.1105936
0002c0 1a 08 a7 be df ac 16 bd 0e 25 da be 20 5e 0e be
       -0.32623369 -0.036785956 -0.42606395 -0.13903093
0002d0 9e 40 ea 3c d4 01 2c 3d fa 85 81 3e 9b 0f 44 3d
       0.028595265 0.04199393 0.25297529 0.047866445
0002e0 db c0 18 bf e9 26 36 be 5c c8 c6 be 31 24 46 be
       -0.59669274 -0.1778828 -0.38824737 -0.19349743
0002f0 8e 42 de be be 86 91 bd c8 35 b3 bd f5 83 7b 3e
       -0.43410152 -0.07105778 -0.08750492 0.24562056
000300 b7 e4 81 be 6a c3 88 bd 2a f4 a1 bb 3f f5 30 be
       -0.25369808 -0.06677897 -0.0049424367 -0.17281054
000310 c3 ea 30 be 54 a5 82 3b ea c5 e5 3c e1 93 97 be
       -0.17277054 0.003986994 0.028048474 -0.2960501
000320 ca b9 0a bf 7d 94 74 be 08 60 a1 be 13 4e d3 be
       -0.5418974 -0.23884769 -0.3151858 -0.41270503
000330 d1 70 b6 be 79 7c b1 be 05 8e b6 be d9 62 3f bf
       -0.35632947 -0.34665278 -0.35655227 -0.74760205
000340 02 bd bf be f0 7a 70 be 77 f9 93 be 6f 94 15 be
       -0.3744889 -0.23484397 -0.28901264 -0.14607404
000350 81 48 36 be a5 0f 57 bc 55 73 bc bd 35 88 45 be
       -0.17801096 -0.013126289 -0.09201685 -0.1929024
000360 6a 8a 27 bd 93 7a 76 bd c3 61 87 bd 5d 4d 53 be
       -0.040903486 -0.06017549 -0.066104434 -0.2063498
000370 d3 b6 88 bd ed 3a 43 3d da 9b 91 be 75 3f 0b 3e
       -0.06675496 0.047663618 -0.28439218 0.13598426
000380 65 20 97 be 8b f5 4c be 97 a7 35 be e9 6b 17 be
       -0.29516903 -0.20015542 -0.17739712 -0.14787258
000390 ee 2a 23 be a2 76 ab bc e1 19 99 be 03 f7 28 be
       -0.15934345 -0.020930592 -0.29902557 -0.16500477
0003a0 fb 46 33 3d 84 bf 1a 3d 25 37 00 be 88 86 e2 bd
       0.043768864 0.0377803 -0.12521036 -0.11060816
0003b0 1c 4d cc bb f8 9e 16 bf a8 7d 6b 3d 5d 7a 42 be
       -0.006234778 -0.5883632 0.057492882 -0.1899199
0003c0 ff b5 9d be 38 ef b6 bd c4 d9 33 bd 20 ff 85 be
       -0.30802915 -0.08932346 -0.04390885 -0.26171207
0003d0 03 50 17 bd 2a 21 25 bc 5a 79 78 be b3 5b a4 bd
       -0.03694154 -0.010078708 -0.24265042 -0.08025303
0003e0 22 22 b8 be 5d 34 08 be 73 22 a0 be 2c c7 ab be
       -0.3596354 -0.13301225 -0.31276283 -0.33550394
0003f0 b4 5e 48 be 85 04 de be d1 cf 05 bf 5a 4c 87 bd
       -0.19567376 -0.43362823 -0.5227023 -0.0660636

fc2.weight f4 [300, 400]
000000 e0 fc 50 3e 5d f0 27 3d a8 70 0c 3f b4 99 89 3d
       0.20408964 0.041000713 0.548594 0.0671877
000010 a2 9f 98 be 00 78 14 3e a9 25 c1 bc 30 e3 8d 3e
       -0.2980929 0.14498901 -0.023577528 0.27712393
000020 95 f6 0b bf 13 e9 33 bf fc 1c aa 3d 5f 08 9c 3e
       -0.5467313 -0.7027752 0.083063096 0.30475137
000030 f7 96 03 be 86 ce 39 bf 12 3e 85 3e f7 2e 70 bc
       -0.12850557 -0.72580755 0.26023918 -0.014659635
000040 68 c5 95 3d b6 b1 7a 3e 45 98 c2 39 ee c9 21 3e
       0.07313043 0.24481854 0.00037116013 0.15799686
000050 9c 20 c2 3d 8d eb a7 be b8 9b 84 3e 10 02 11 be
       0.09478876 -0.32796898 0.25900054 -0.14160943
000060 6c 4e 0d 3e b1 4b 9c be a6 46 de 3e 41 68 70 be
       0.13799447 -0.30526498 0.43413275 -0.2347727
000070 d5 2c e5 bd 5e b9 57 bd 0c 1b a8 bd c2 b0 a8 be
       -0.11190192 -0.052667014 -0.08208284 -0.32947356
000080 32 a3 84 3e 16 1b 56 be 2d 06 11 3f 2a 82 1c 3d
       0.25905758 -0.2090877 0.5665005 0.03821007
000090 22 9f 84 3e 19 6f 4a be f8 fa a2 3b 66 b7 ea bd
       0.2590266 -0.19768943 0.0049737655 -0.11460762
0000a0 3f fe 02 3e e9 8d 48 3e d5 de 7a bf cc 93 1f be
       0.127923 0.19585384 -0.97996265 -0.15583724
0000b0 5e bb be 3e 99 f5 5e be 08 a6 85 3e 7c e7 69 3d
       0.37252325 -0.21773376 0.26103234 0.057105526
0000c0 fa 22 ee be e6 d3 01 bf b8 98 7e be 21 80 8c bd
       -0.4651106 -0.50713956 -0.24862945 -0.06860376
0000d0 a1 0a 51 be dc 7e 8c 3d 2f 8c 04 3d 13 60 15 3e
       -0.20414211 0.06860134 0.032360252 0.1458743
0000e0 f6 43 42 bf 9d 16 43 bd 13 7a 82 3e 38 b5 63 3d
       -0.7588495 -0.047628988 0.2548376 0.055592746
0000f0 b0 b2 e4 3e dd 8c 2c 3e 7c aa 42 3d aa 67 80 be
       0.44667578 0.1685061 0.047525868 -0.2507909
000100 73 5f 23 bd b0 82 16 bd a0 f6 97 be a6 94 62 3e
       -0.03988595 -0.036745727 -0.29680347 0.22127017
000110 a9 36 8c be b6 26 8a be 0b 5e bf bd 3c 62 5e bd
       -0.27385452 -0.2698266 -0.09344109 -0.054292902
000120 99 b8 d1 bd 6c 41 48 3e 0e 51 9e bd 95 46 00 be
       -0.10240287 0.19556206 -0.07730304 -0.12526925
000130 d1 4d 50 3e 7d cf a5 be 4d 42 a5 be a2 d4 cc 3c
       0.20342185 -0.32384863 -0.32277146 0.025003735
000140 ba 09 08 3e 48 16 86 be 2e 06 44 be 75 cd 08 bd
       0.1328496 -0.26188874 -0.19142982 -0.033399064
000150 86 83 d5 be 7b f8 6f be 91 e5 93 be 00 a2 cf 3c
       -0.41701907 -0.23434632 -0.28886083 0.025345802
000160 3a 22 ec 3d 15 98 d3 3e 00 6b 54 be 37 93 5a 3e
       0.11529966 0.41326967 -0.20743942 0.2134522
000170 1e d2 c5 3d 0d 60 75 3e 8e bf 0e 3f 95 69 67 be
       0.09659217 0.23962422 0.5576104 -0.2259887
000180 3b 98 db 3d df b5 80 be 9d 50 44 3e ae 83 c4 3d
       0.10722395 -0.25138757 0.19171377 0.095954284
000190 cf ad 03 bc 85 88 d4 be d0 2f 88 be b0 7f de 3d
       -0.008037045 -0.41510406 -0.26598978 0.10864198
0001a0 de 1e 12 bd b7 66 11 be 01 73 4a be 63 bf 93 bc
       -0.03567397 -0.14199339 -0.19770433 -0.018035596
0001b0 f5 39 c6 bd 7c c5 9c 3e 60 4e 7c 3c ea 5d c7 be
       -0.09679023 0.3061942 0.015399545 -0.38938838
0001c0 22 21 2c 3e 11 ee 0e 3e 5c 9c dd 3d 8a 14 06 bf
       0.16809514 0.13958003 0.10820839 -0.5237509
0001d0 99 09 61 be be 56 fc bd 97 b1 e5 3e 60 db 27 bc
       -0.21976317 -0.12321232 0.44862053 -0.010245174
0001e0 68 b8 4c 3e 6f 82 01 3d f2 c4 fe 3d c6 f6 d3 3d
       0.1999222 0.03161853 0.12439908 0.10349803
0001f0 39 12 86 3d 2d 1f db 3d be 69 a4 be 66 c2 bd 3d
       0.065464444 0.10699306 -0.32111925 0.09265594
000200 5d e5 68 3d 39 27 61 3e da 55 15 be 4e f3 05 3d
       0.056859363 0.21987619 -0.14583531 0.032702737
000210 89 25 dd be 85 2d af be f3 c4 ad 3d f5 03 45 3e
       -0.431927 -0.34214416 0.08484831 0.1923979
000220 a3 c3 1d bd 5f 7a 1f 3e 25 2a df be 7a 1d 05 3e
       -0.03851665 0.15574025 -0.4358684 0.12999526
000230 bb dc 27 be 00 da 9b be 59 aa 78 be 0e 82 4b bd
       -0.16392796 -0.30439758 -0.24283732 -0.049684577
000240 ca c9 93 be 96 37 2a be e2 99 8a be da 80 95 be
       -0.2886489 -0.16622767 -0.27070528 -0.29199868
000250 39 6e a5 3c 64 8d 8f 3e 0c 49 05 be 2f 8c 3b 3e
       0.02019416 0.2803756 -0.13016146 0.18315195
000260 bc b2 20 be f8 3c f5 3d 9a fb 99 3e f9 60 eb 3d
       -0.15693182 0.119745195 0.3007477 0.114931054
000270 21 5f 89 3d 3d 61 14 bc 6f 97 e2 be 19 5f 70 3e
       0.067075975 -0.009056387 -0.4425616 0.23473777
000280 a4 62 4b bf 31 e0 75 3e ca b2 86 be c8 d6 e3 be
       -0.7944739 0.24011303 -0.2630828 -0.44499803
000290 5b 5e 9a 3a 8d 98 24 bf 6c ad 17 be 70 79 25 3e
       0.0011777388 -0.64295274 -0.14812249 0.16159606
0002a0 35 c8 f5 bd 75 05 a1 be 37 03 f8 3e f3 f5 b6 be
       -0.12001077 -0.31449476 0.48439953 -0.3573452
0002b0 e7 53 a0 be c9 e9 85 bc 6b 9e 83 3e 3f 53 3d bf
       -0.31314012 -0.016346829 0.257068 -0.7395515
0002c0 cc 83 87 be fe 2c 15 be a8 68 68 3d e8 1f 1f 3e
       -0.2646774 -0.14567944 0.056740433 0.15539515
0002d0 c0 17 f4 bd 9f 12 f7 bd cf 70 cf 3e 82 a1 32 be
       -0.119185925 -0.120640986 0.40515754 -0.17444423
0002e0 29 37 94 be c4 41 68 3e e1 7b 31 3e 4f 29 04 3e
       -0.28948334 0.22681338 0.17332412 0.12906383
0002f0 1b a8 6d 3e ca 0b 4d bd b4 79 a1 bb fa cd 2d be
       0.23208658 -0.05006007 -0.004927838 -0.16973105
000300 37 74 57 bd c1 97 a5 3e 38 09 c5 3d 05 72 40 3e
       -0.052601065 0.32342342 0.09620899 0.18793495
000310 ed 3c 24 bb e0 0d 80 be 2a c0 70 3e 6d c5 9a 3e
       -0.0025060729 -0.25010586 0.23510805 0.3022875
000320 fd 3b b6 3e 25 e8 6f 3e 8f 7a 78 3d 97 68 a5 bd
       0.35592642 0.234284 0.060663756 -0.080765896
000330 a2 65 4f bf d5 8f 95 bd 8e 29 10 3e 5c 9e 91 be
       -0.81014454 -0.073028244 0.14078352 -0.2844113
000340 8d 19 aa be 69 3f f0 3d 23 96 48 be 15 ea 41 3d
       -0.3322262 0.117308445 -0.19588523 0.04734238
000350 62 92 3f 3e 48 79 f9 bd 03 0e 13 be 85 a9 08 bf
       0.18708184 -0.12181336 -0.14360814 -0.53383666
000360 51 fb 88 3d 43 21 a0 3d 7b 8d b4 be 8c 73 12 be
       0.0668856 0.07818844 -0.3526419 -0.1430189
000370 8a a8 df 3e aa 67 39 be fb 8d 18 be c4 b7 be 3e
       0.43683273 -0.18105951 -0.14897911 0.37249577
000380 03 9e 1e 3e fa 35 b0 be ee ad fc be d8 4b c8 3e
       0.15489964 -0.3441618 -0.49351448 0.39120364
000390 b5 33 1b be 38 79 8d 3d bd ac 9f be b5 60 bf be
       -0.15156443 0.06907886 -0.31186476 -0.3737847
0003a0 de ba 3f be 49 95 2a 3d 89 42 34 bd c7 ae d6 be
       -0.18723628 0.041646276 -0.044008765 -0.4193022
0003b0 99 e7 b6 3e 72 0e 5a 3e 79 a4 c0 3e 52 7d 18 3e
       0.3572357 0.21294573 0.37625483 0.14891556
0003c0 7e 74 ef bd 45 15 eb bd da 62 d2 bb 00 4f a7 be
       -0.11692141 -0.11478666 -0.0064204754 -0.3267746
0003d0 60 c5 5a bb 6f f9 58 3e 75 07 4a be 05 01 a1 be
       -0.0033381805 0.21188901 -0.19729407 -0.3144609
0003e0 36 43 16 3c 2a 47 4f be 08 da 52 3c 65 d7 72 3e
       0.009171298 -0.2024199 0.0128693655 0.23714979
0003f0 fe 62 30 bf 10 cc b4 be 6d f5 b7 bd ba 8d aa 3e
       -0.6890105 -0.35311937 -0.08982358 0.33311254

fc2.bias f4 [300]
000000 cb 10 a6 bd 4d 3d 62 3e 92 0b b3 be 72 2a ba 3d
       -0.08108672 0.22093697 -0.34969765 0.09090127
000010 2c 2f 26 bd 0e 26 b4 3d 51 33 95 be 44 d2 4c bc
       -0.04057233 0.08796321 -0.29140714 -0.012501303
000020 11 66 a9 be 21 25 5a be 9c 66 e2 be 16 de 63 bd
       -0.33085683 -0.21303226 -0.4421891 -0.05563172
000030 6d 08 3c bd e1 b0 2e be 38 84 2a be 97 88 1b 3e
       -0.045906473 -0.17059661 -0.16652 0.15188824
000040 bd 26 82 3e fd 07 02 be 26 95 eb be 70 5d 7c bd
       0.2542018 -0.1269836 -0.4601223 -0.061612546
000050 1f 76 63 be 96 56 0e bd 84 9f 71 3e 2a aa 4f be
       -0.22213028 -0.034750544 0.23596007 -0.20279756
000060 2f c0 16 3e e3 f7 d9 bc d8 e2 e7 bc 16 a9 b3 be
       0.1472175 -0.02660746 -0.02830641 -0.3508994
000070 55 7c a9 be c2 80 82 3d b7 d2 9d 3d ae 09 89 3e
       -0.3310267 0.06372215 0.07706206 0.26765198
000080 f7 e4 7e bc ad b6 84 bd b1 87 9f 3e 70 ef 0c bd
       -0.015557519 -0.06480155 0.31158212 -0.034408033
000090 e9 5a 02 3e 57 8f c6 bc 94 37 3b bc fc ba 8e 3c
       0.12729992 -0.024238272 -0.011426825 0.017423145
0000a0 4b 6c 90 bd be 2c a0 3d 0a 70 2c be 05 4c 20 3e
       -0.07051905 0.07821034 -0.16839615 0.15653999
0000b0 24 d2 2c be ab 16 c1 3b 63 14 96 3b 43 25 f4 bd
       -0.16877037 0.005892595 0.004580067 -0.119211696
0000c0 a8 96 2c bd 75 c2 73 be d5 d8 77 bc 4b a6 03 be
       -0.042135864 -0.23804648 -0.01512738 -0.12856404
0000d0 ff d0 62 bd 67 e9 8f bd 06 90 2f 3e 04 86 81 3e
       -0.055375095 -0.0702694 0.17144784 0.25297558
0000e0 d2 25 01 bb 4d a8 31 bd 12 15 55 be bd a9 4a be
       -0.001970638 -0.043373395 -0.20808819 -0.19791313
0000f0 bd 1b b7 be a7 28 23 be 0f 31 4a 3d f9 43 9d bd
       -0.3576335 -0.15933476 0.049363192 -0.076789804
000100 09 be 1e be 4d b5 36 3e f1 5d 6b 3d 22 92 56 bd
       -0.1550218 0.17842598 0.057462636 -0.052385457
000110 df 3e c0 be 6c af 65 bc 2f 26 da 3c 53 e0 f3 3c
       -0.37547967 -0.014018875 0.026629535 0.029770052
000120 2f b1 4b be 4c d7 89 bd 11 33 2e 3e b0 01 8f be
       -0.19891809 -0.06730518 0.17011668 -0.27930975
000130 8c 90 e7 bc 0c fd d0 bd 11 01 01 be cd 96 76 be
       -0.028267168 -0.10204515 -0.12598063 -0.24080963
000140 68 3d 20 bc d4 5e 44 be ac 55 50 3e a0 89 c3 bd
       -0.009780265 -0.19176799 0.20345181 -0.09547734
000150 a6 85 22 bd 51 7d 45 be f8 04 87 bd 59 e0 1a 3d
       -0.03967824 -0.19286086 -0.065927446 0.03781161
000160 59 bd be 3d 3f b9 dc 3c 7d fd 5f be bc da ea 3c
       0.09313459 0.026943801 -0.21874042 0.028668754
000170 05 ac f6 be 98 4d 00 3e 33 78 3e bc 51 c7 9f 3d
       -0.48178115 0.125296 -0.011625337 0.078016885
000180 d8 1c 00 bd 8b 88 d2 3e cc 8a b5 3c c4 13 14 bd
       -0.031277508 0.411198 0.02216091 -0.036151662
000190 14 eb a0 be ca 36 33 be 7f 61 3d 3d 46 25 13 be
       -0.3142935 -0.17501369 0.046235558 -0.14369687
0001a0 15 c6 ee bb 6b 8c 82 3c 71 3d 7d 3d 99 03 95 3c
       -0.007286797 0.015936097 0.061826173 0.018190192
0001b0 3e e7 bd 3d 38 82 56 3c 4d 97 a5 bd 20 89 d7 bd
       0.092726216 0.01309257 -0.08085499 -0.105242014
0001c0 36 f4 a7 bc 38 91 ca 3d 28 42 9a be ee b0 b6 bd
       -0.020502191 0.098909795 -0.30128598 -0.089204654
0001d0 77 a7 da 3c 0a 4a a4 bd 9f 58 b4 bc 2b f0 dd 3d
       0.026691182 -0.08021934 -0.022014914 0.10836824
0001e0 46 58 c0 3d d2 59 29 be ee 13 ca bc ba 6d 79 be
       0.09391837 -0.1653817 -0.024667706 -0.24358264
0001f0 9c 6d f1 3c 7b 87 19 be 79 fe e7 3c 17 46 fa bc
       0.029471211 -0.14993088 0.028319584 -0.030551
000200 88 66 a8 bb b4 c9 b4 bb a0 0f 69 bd 2b f7 73 bd
       -0.005139176 -0.005517209 -0.056899667 -0.05956189
000210 a1 88 7a 3e 59 75 f6 3d 68 a6 12 be 2b c1 31 be
       0.24466182 0.12034101 -0.14321291 -0.17358844
000220 07 3b 91 3d 67 71 59 bc 46 e0 a3 bd 96 0c c3 bd
       0.07091337 -0.013271666 -0.08001761 -0.09523885
000230 8d 8e 49 bd f9 9b 38 bb 31 d3 5f bc d4 b8 1b be
       -0.049208213 -0.0028169139 -0.013661192 -0.15207225
000240 17 b0 30 be c6 83 b5 bb 41 7e a7 3b 90 09 76 bc
       -0.17254673 -0.0055393903 0.005111486 -0.015016928
000250 c7 e4 13 3e 7a 31 11 3c 6b a1 24 be 3c 67 11 be
       0.1444274 0.008861894 -0.16077201 -0.14199537
000260 02 50 46 bd 87 67 40 bd a1 88 ce 3c d6 15 5e be
       -0.048416145 -0.04697373 0.025211634 -0.21688017
000270 fa 49 e9 bd 85 1b 7a bd f0 84 63 3e be 7e 2d 3e
       -0.11391063 -0.0610614 0.2221868 0.1694288
000280 d4 2d 97 3d 18 c3 c2 3d 99 52 df 3d 3b 5b a2 3d
       0.07381788 0.095098674 0.10904426 0.07927557
000290 e0 2b b7 3e 5e 3f 3d bd b1 ab 92 be 4d bd a8 3c
       0.3577566 -0.04620301 -0.28646615 0.020598078
0002a0 eb 51 22 be 79 a9 36 bd 0c 5d 1c 3e 80 07 7b 3e
       -0.15851562 -0.044595215 0.1526987 0.2451458
0002b0 59 1f ff be aa 9b 74 3d 71 78 45 3d b1 89 11 be
       -0.49828604 0.059718765 0.048210565 -0.14212681
0002c0 7a 4c 12 3c 8b 50 e9 be 80 ef 7d be 4e 34 bc 3d
       0.008929366 -0.45569262 -0.24798393 0.09189664
0002d0 14 e3 fc 3c 92 16 0a 3c 32 2f 17 bc 46 d3 72 be
       0.030869998 0.008428233 -0.009227561 -0.23713407
0002e0 af 3d 9d 3d 0d 6d 05 bc 1a 25 03 be af 25 1b 3d
       0.07677781 -0.0081436755 -0.12807122 0.037877735
0002f0 0e 97 eb 3d bc 3d 02 be e3 1b f0 bd 99 b2 59 3d
       0.11503421 -0.12718862 -0.11724069 0.05314884
000300 81 26 28 bb 7d 0f 1f 3c e7 d4 83 bb 81 d1 3e 3e
       -0.0025657716 0.009708283 -0.0040231827 0.18634607
000310 59 59 a7 3d 1a 5d 12 be 74 f6 f1 3c 51 df 90 bd
       0.081713386 -0.14293328 0.029536463 -0.07073844
000320 d9 f2 a1 3d 9a 7a 33 3d ac 67 30 bd 56 de 87 be
       0.07907648 0.043818094 -0.04306762 -0.26536816
000330 ad a5 fb bc 6b 4f 85 bd 11 cc ef 3d 46 9a 8d be
       -0.030718649 -0.065092884 0.117088445 -0.27656764
000340 fd fb cd bd c2 6a 3e bd b4 0b 9d 3e f0 99 3c 3d
       -0.100578286 -0.04648853 0.3067299 0.046045244
000350 7e 32 5c 3c 7b 5e 39 3d 6e 91 00 be c6 8c 95 3d
       0.013439773 0.04525612 -0.12555477 0.07302241
000360 c1 93 e9 bc f4 73 68 be 76 bd eb 3d 8d c5 07 be
       -0.028512837 -0.22700483 0.11510746 -0.13258953
000370 5a 6c c3 bd 04 e5 54 bd e9 a8 8c be fd 51 3a bc
       -0.09542151 -0.05197622 -0.27472618 -0.011372087
000380 e2 aa 5e 3d 98 81 fb bd d8 2b 13 be f9 f2 a7 bd
       0.054362185 -0.122805774 -0.14372194 -0.0820064
000390 36 1a 85 be 7b d1 83 3d 7b 3e 06 3e 1f 86 20 be
       -0.2599656 0.064364396 0.13109772 -0.15676163
0003a0 6c f0 d1 be 82 ec 9b 3d 8b c2 a0 3b 9c 12 c8 bc
       -0.4100374 0.0761347 0.004906004 -0.024422936
0003b0 12 a3 5d bd cb 57 98 be 70 a8 54 bd 3f 97 b3 b9
       -0.054110594 -0.2975448 -0.051918447 -0.00034254228
0003c0 14 f2 16 3e 3d cf 29 3d 2f d0 9c be 4b 28 25 3c
       0.14740783 0.041457403 -0.3062758 0.010080407
0003d0 00 f8 b1 bc 85 7e 9e 3c 8e 16 20 3c b0 a0 40 3e
       -0.0217247 0.019347439 0.009771002 0.18811297
0003e0 ec 5c 37 3e 01 70 88 3e bb 7d 57 be ee da a2 3e
       0.1790654 0.26647952 -0.21044056 0.31807655
0003f0 58 af 25 be 52 cd 4d bd b4 2d a1 bd 5c 5c 8d be
       -0.1618017 -0.050244637 -0.07870045 -0.27609527

fc3.weight f4 [4, 300]
000000 c1 31 bd be 63 0c a2 be 27 1e a6 3f aa ff 50 3f
       -0.36952022 -0.31650075 1.2977952 0.8164011
000010 ff a3 ce 3d 7f 06 53 be 20 b9 b1 be a0 63 d4 3b
       0.100898735 -0.20607947 -0.34711552 0.006481603
000020 17 1e 2b 3e 53 2f bd bc 9b c9 a9 3e 76 d4 c3 3e
       0.16710697 -0.023093855 0.33161625 0.38248032
000030 db a2 dd be 2c 95 cc 3e cb 39 07 3f 1e 11 f1 bd
       -0.4328831 0.3995756 0.5282256 -0.11770843
000040 8a 97 a3 bd 22 29 7b bf ea fe e1 3e f6 eb 03 3f
       -0.07987888 -0.9810964 0.44139796 0.5153192
000050 fe 7a 42 3f 1b 90 6e 3e da 17 96 bf 6b 28 19 bf
       0.7596892 0.2329716 -1.1726029 -0.598273
000060 b2 c0 fe be 32 7e 7a be 4a ff c9 3d e1 09 9d 3e
       -0.4975639 -0.24462202 0.09863146 0.306716
000070 27 33 4b 3f a8 20 5e 3e eb 04 20 bf 1c 5a e7 be
       0.7937493 0.21692145 -0.62507504 -0.45185935
000080 18 cc 61 be ab a5 99 3c 70 ed d7 be e3 43 20 3d
       -0.22050512 0.018755754 -0.42173338 0.03912724
000090 bb 72 5f bf 98 3d a6 be 0e 93 df be 65 0b 94 be
       -0.8728444 -0.32468867 -0.4366688 -0.28914943
0000a0 46 b3 dc 3e 3d 67 eb 3e a2 0a 10 3e e4 9e 8c 3e
       0.43105525 0.45977202 0.14066556 0.27464974
0000b0 19 73 97 bc 28 70 af 3b 51 fc d9 be 73 51 16 bf
       -0.0184875 0.0053539462 -0.42575315 -0.5871803
0000c0 27 bb 85 be 83 34 4e 3e 3c 0a c0 3b 51 14 0f 3e
       -0.26119348 0.20137219 0.005860595 0.13972594
0000d0 35 f8 a0 3e 5c 3f 80 3f 11 ed 3a be e2 ad cb bf
       0.31439367 1.0019336 -0.18254496 -1.591244
0000e0 f8 95 0d 3c f2 2a 63 3c 42 d9 f9 be 71 b9 45 bf
       0.008641712 0.013865219 -0.48798567 -0.77236086
0000f0 c2 ed 51 3f f9 6e 39 bf c3 65 28 bd 77 34 5e 3d
       0.82003415 -0.72434956 -0.041112673 0.054249253
000100 22 3c dc 3d 67 17 01 3f 24 fd 18 bf 86 2f 7e be
       0.10753657 0.50426334 -0.5976126 -0.24822816
000110 35 ba 55 3e 3f f0 69 bb 89 0d c6 3c 14 98 bc 3c
       0.20871814 -0.0035696176 0.024176376 0.023021735
000120 a5 a4 1b 3e 35 a5 6c be 5c c6 f7 3c e2 57 bf 3d
       0.15199526 -0.23109896 0.030245952 0.09342934
000130 82 a6 75 bf 0e 85 95 3e 2c d9 a8 3e f0 80 4a 3f
       -0.95957196 0.29203075 0.3297819 0.79102993
000140 91 c6 f7 be 6d 18 14 3f b7 54 d6 be 19 f1 69 be
       -0.48393682 0.5784977 -0.41861507 -0.22845878
000150 2a 29 7a 3b 66 ea e0 3e b1 90 5c 3f bb 4d 17 3c
       0.0038171508 0.43928832 0.8615828 0.009234841
000160 37 75 06 be 73 ca ae 3c 3f d4 cd 3d 0c b3 cc be
       -0.13130651 0.02133677 0.10050248 -0.39980352
000170 97 a8 3b be f9 5e 2a be ef 42 90 3c ae e0 af 3e
       -0.1832603 -0.16637792 0.017610041 0.34351104
000180 ea ba 02 be 69 2a 95 be 8a fb 9b 3c 64 95 3b bc
       -0.12766615 -0.2913392 0.019040842 -0.011449192
000190 60 12 20 3f a4 59 0f 3f 1a fb d1 be 59 2d a7 3e
       0.6252804 0.55996156 -0.41011888 0.32651785
0001a0 35 c1 fb 3d 74 79 99 be a5 87 d2 be 04 ed 8a 3d
       0.12292711 -0.29975474 -0.41119114 0.067834884
0001b0 c2 0c 82 3f 77 7a 94 3f 1a 5a 92 3c 71 c2 dc 3d
       1.0160143 1.1599873 0.01786523 0.10779274
0001c0 4f 13 f5 3b 30 b1 9e be 27 41 3e bf 24 c9 0a 3d
       0.0074791084 -0.30994558 -0.74318165 0.03388323
0001d0 a7 9d 1c bd 29 74 72 3f 30 95 19 3f fa 7d ac bc
       -0.038236286 0.94708496 0.5999327 -0.021056164
0001e0 59 51 38 3e 9a ae 1d be dc 50 15 bf 06 e0 2b 3f
       0.17999782 -0.15398636 -0.58326507 0.6713871
0001f0 b6 64 d9 3e c2 24 35 3d e1 74 c2 bc 50 8f 0b bf
       0.4245965 0.044224508 -0.023737373 -0.5451555
000200 e0 69 21 bd 44 bf 17 3c ca f2 57 3e f4 e1 b2 3c
       -0.03940761 0.00926191 0.2108871 0.021836258
000210 e0 8e 1b 3e db be 9a bd 98 b8 b6 3e 50 e7 38 bf
       0.15191221 -0.07555934 0.3568771 -0.72227955
000220 f5 05 02 3f 29 2c 8c be ac 97 91 be 52 ed 8a be
       0.5079034 -0.27377442 -0.2843603 -0.27134186
000230 09 ea e8 be 33 5d fd be 8b dc 17 3e 44 91 ff be
       -0.45491055 -0.49485168 0.14830224 -0.49915516
000240 57 5d ae bb 09 b2 4a bf 47 cf ab 3d 6e 34 03 3d
       -0.0053211856 -0.7917791 0.083891444 0.032032423
000250 06 4f 42 bf cd b1 89 3e 5b b9 fd 3e ef a5 3e bf
       -0.7590183 0.26893464 0.49555477 -0.74471945
000260 88 f1 78 3f eb 86 72 3e f6 53 07 be 03 39 4d be
       0.9724355 0.2368428 -0.13215622 -0.2004128
000270 9b 4e 37 3e ab 53 69 bf 77 62 ea be 6e 10 18 bd
       0.1790108 -0.9114329 -0.45778248 -0.037125044
000280 09 c8 36 be f1 9a b2 be 2c fe 07 3f 2a f1 20 bf
       -0.17849745 -0.34883836 0.5312221 -0.6286799
000290 a4 da 19 bf cb 43 1a bf 99 d4 24 be 61 9e fa 3b
       -0.60099244 -0.60259694 -0.16096725 0.007648275
0002a0 90 b6 0a 3f 9e 70 63 3f 18 e4 3f bf 83 80 07 bf
       0.5418482 0.88843715 -0.7495742 -0.5293047
0002b0 e5 cf 7e 3f 2d 12 4d bd a0 24 35 3e f2 ff 8f 3e
       0.9953597 -0.050066162 0.17689753 0.28124958
0002c0 ba 05 4e bc cd ac 3e 3e 95 30 3e be 9e 61 4b bf
       -0.0125746075 0.18620606 -0.1857322 -0.79445827
0002d0 f9 0d 28 3f a9 65 23 be c3 90 c0 3c 46 c7 0e 3f
       0.6564632 -0.15956749 0.023506528 0.5577282
0002e0 3e 1f 38 be 10 0d 28 3f 72 3f 8b 3e 3c b0 6a 3f
       -0.17980668 0.6564493 0.27196842 0.9167516
0002f0 03 d0 08 be 2d d1 2d 3d 59 7f 41 3f ca bc 68 be
       -0.133606 0.042435814 0.7558494 -0.22728267
000300 99 6c 9b 3c e2 72 83 3e f4 2f cc 3d ba db c0 3d
       0.018972682 0.25673586 0.09970084 0.094169095
000310 79 6b 10 be 5d bf 31 bf 0c 95 8a be 52 b9 59 bf
       -0.14103498 -0.6943262 -0.2706684 -0.850484
000320 87 e5 80 bd e6 a2 08 3c d1 3f f2 3b 3c 66 20 bf
       -0.06293779 0.008339619 0.0073928614 -0.62656
000330 d5 5d 60 bd 7a c8 f1 3e f7 dd b8 3e 7c 71 df 3e
       -0.054776985 0.47223264 0.36106846 0.4364127
000340 ac b6 b3 3d f9 e8 51 3d 66 45 e5 bd 1f af e9 3e
       0.08775076 0.05124757 -0.11194877 0.4564142
000350 71 9a 95 3d a5 92 c3 3b 62 e2 f0 3c 97 d0 b3 bd
       0.07304848 0.005968409 0.029404823 -0.0878002
000360 a0 b3 37 3f 1c 5d 62 be c1 69 50 bf b1 f0 9d bc
       0.7175846 -0.22105831 -0.8141137 -0.01927981
000370 66 49 4c 3e 79 ca 44 3f 2c 09 0b 3f 37 77 0b bd
       0.19949874 0.7687145 0.5431087 -0.03404924
000380 0a 77 ba be de b0 2a bf fc bd fc 3e 95 4b f2 be
       -0.36418945 -0.6667613 0.49363697 -0.4732329
000390 65 69 1c bf ef b8 20 3d 64 52 8b 3e b1 8e 46 be
       -0.6109832 0.039238866 0.27211297 -0.1939037
0003a0 9c 1f b9 3f 94 2e 9a 3c d4 de 3f 3c cd 7f c6 3c
       1.4462771 0.018821038 0.011710841 0.024230862
0003b0 a9 0b bd bd 20 66 1d bf 44 2d d4 bd bc a0 e8 3b
       -0.092307396 -0.61483955 -0.10360196 0.007099239
0003c0 e8 94 75 3f 3c 9a d9 bd 88 14 73 3f 96 dd 09 bc
       0.9593034 -0.10625121 0.94953203 -0.008414647
0003d0 34 6c c1 3c 16 f5 8a 3c 48 47 f8 be e2 4f 8b 3c
       0.023611166 0.01696257 -0.48491883 0.017005865
0003e0 9d 7c e0 be b0 15 2d bf 22 ff 91 bf e2 b5 40 3f
       -0.43845072 -0.6761122 -1.1405985 0.7527753
0003f0 34 19 d4 3e 99 92 59 bf 9d 6a 40 bd d3 25 a3 3f
       0.41425478 -0.84989315 -0.046976674 1.2745918

fc3.bias f4 [4]
000000 cd 3a f2 bd fd 0e 9d be da 0d 36 be ea c6 b8 3c
       -0.118276216 -0.30675498 -0.17778721 0.022555787
